{"format": "layers-model", "generatedBy": "keras v2.4.0", "convertedBy": "TensorFlow.js Converter v3.4.0", "modelTopology": {"keras_version": "2.4.0", "backend": "tensorflow", "model_config": {"class_name": "Functional", "config": {"name": "model", "layers": [{"class_name": "InputLayer", "config": {"batch_input_shape": [null, 128, 128, 3], "dtype": "float32", "sparse": false, "ragged": false, "name": "input_1"}, "name": "input_1", "inbound_nodes": []}, {"class_name": "Rescaling", "config": {"name": "rescaling", "trainable": true, "dtype": "float32", "scale": 0.00392156862745098, "offset": 0.0}, "name": "rescaling", "inbound_nodes": [[["input_1", 0, 0, {}]]]}, {"class_name": "Normalization", "config": {"name": "normalization", "trainable": true, "dtype": "float32", "axis": [3]}, "name": "normalization", "inbound_nodes": [[["rescaling", 0, 0, {}]]]}, {"class_name": "ZeroPadding2D", "config": {"name": "stem_conv_pad", "trainable": true, "dtype": "float32", "padding": [[0, 1], [0, 1]], "data_format": "channels_last"}, "name": "stem_conv_pad", "inbound_nodes": [[["normalization", 0, 0, {}]]]}, {"class_name": "Conv2D", "config": {"name": "stem_conv", "trainable": true, "dtype": "float32", "filters": 64, "kernel_size": [3, 3], "strides": [2, 2], "padding": "valid", "data_format": "channels_last", "dilation_rate": [1, 1], "groups": 1, "activation": "linear", "use_bias": false, "kernel_initializer": {"class_name": "VarianceScaling", "config": {"scale": 2.0, "mode": "fan_out", "distribution": "truncated_normal", "seed": null}}, "bias_initializer": {"class_name": "Zeros", "config": {}}, "kernel_regularizer": null, "bias_regularizer": null, "activity_regularizer": null, "kernel_constraint": null, "bias_constraint": null}, "name": "stem_conv", "inbound_nodes": [[["stem_conv_pad", 0, 0, {}]]]}, {"class_name": "BatchNormalization", "config": {"name": "stem_bn", "trainable": true, "dtype": "float32", "axis": [3], "momentum": 0.99, "epsilon": 0.001, "center": true, "scale": true, "beta_initializer": {"class_name": "Zeros", "config": {}}, "gamma_initializer": {"class_name": "Ones", "config": {}}, "moving_mean_initializer": {"class_name": "Zeros", "config": {}}, "moving_variance_initializer": {"class_name": "Ones", "config": {}}, "beta_regularizer": null, "gamma_regularizer": null, "beta_constraint": null, "gamma_constraint": null}, "name": "stem_bn", "inbound_nodes": [[["stem_conv", 0, 0, {}]]]}, {"class_name": "Activation", "config": {"name": "stem_activation", "trainable": true, "dtype": "float32", "activation": "swish"}, "name": "stem_activation", "inbound_nodes": [[["stem_bn", 0, 0, {}]]]}, {"class_name": "DepthwiseConv2D", "config": {"name": "block1a_dwconv", "trainable": true, "dtype": "float32", "kernel_size": [3, 3], "strides": [1, 1], "padding": "same", "data_format": "channels_last", "dilation_rate": [1, 1], "groups": 1, "activation": "linear", "use_bias": false, "bias_initializer": {"class_name": "Zeros", "config": {}}, "bias_regularizer": null, "activity_regularizer": null, "bias_constraint": null, "depth_multiplier": 1, "depthwise_initializer": {"class_name": "VarianceScaling", "config": {"scale": 2.0, "mode": "fan_out", "distribution": "truncated_normal", "seed": null}}, "depthwise_regularizer": null, "depthwise_constraint": null}, "name": "block1a_dwconv", "inbound_nodes": [[["stem_activation", 0, 0, {}]]]}, {"class_name": "BatchNormalization", "config": {"name": "block1a_bn", "trainable": true, "dtype": "float32", "axis": [3], "momentum": 0.99, "epsilon": 0.001, "center": true, "scale": true, "beta_initializer": {"class_name": "Zeros", "config": {}}, "gamma_initializer": {"class_name": "Ones", "config": {}}, "moving_mean_initializer": {"class_name": "Zeros", "config": {}}, "moving_variance_initializer": {"class_name": "Ones", "config": {}}, "beta_regularizer": null, "gamma_regularizer": null, "beta_constraint": null, "gamma_constraint": null}, "name": "block1a_bn", "inbound_nodes": [[["block1a_dwconv", 0, 0, {}]]]}, {"class_name": "Activation", "config": {"name": "block1a_activation", "trainable": true, "dtype": "float32", "activation": "swish"}, "name": "block1a_activation", "inbound_nodes": [[["block1a_bn", 0, 0, {}]]]}, {"class_name": "GlobalAveragePooling2D", "config": {"name": "block1a_se_squeeze", "trainable": true, "dtype": "float32", "data_format": "channels_last"}, "name": "block1a_se_squeeze", "inbound_nodes": [[["block1a_activation", 0, 0, {}]]]}, {"class_name": "Reshape", "config": {"name": "block1a_se_reshape", "trainable": true, "dtype": "float32", "target_shape": [1, 1, 64]}, "name": "block1a_se_reshape", "inbound_nodes": [[["block1a_se_squeeze", 0, 0, {}]]]}, {"class_name": "Conv2D", "config": {"name": "block1a_se_reduce", "trainable": true, "dtype": "float32", "filters": 16, "kernel_size": [1, 1], "strides": [1, 1], "padding": "same", "data_format": "channels_last", "dilation_rate": [1, 1], "groups": 1, "activation": "swish", "use_bias": true, "kernel_initializer": {"class_name": "VarianceScaling", "config": {"scale": 2.0, "mode": "fan_out", "distribution": "truncated_normal", "seed": null}}, "bias_initializer": {"class_name": "Zeros", "config": {}}, "kernel_regularizer": null, "bias_regularizer": null, "activity_regularizer": null, "kernel_constraint": null, "bias_constraint": null}, "name": "block1a_se_reduce", "inbound_nodes": [[["block1a_se_reshape", 0, 0, {}]]]}, {"class_name": "Conv2D", "config": {"name": "block1a_se_expand", "trainable": true, "dtype": "float32", "filters": 64, "kernel_size": [1, 1], "strides": [1, 1], "padding": "same", "data_format": "channels_last", "dilation_rate": [1, 1], "groups": 1, "activation": "sigmoid", "use_bias": true, "kernel_initializer": {"class_name": "VarianceScaling", "config": {"scale": 2.0, "mode": "fan_out", "distribution": "truncated_normal", "seed": null}}, "bias_initializer": {"class_name": "Zeros", "config": {}}, "kernel_regularizer": null, "bias_regularizer": null, "activity_regularizer": null, "kernel_constraint": null, "bias_constraint": null}, "name": "block1a_se_expand", "inbound_nodes": [[["block1a_se_reduce", 0, 0, {}]]]}, {"class_name": "Multiply", "config": {"name": "block1a_se_excite", "trainable": true, "dtype": "float32"}, "name": "block1a_se_excite", "inbound_nodes": [[["block1a_activation", 0, 0, {}], ["block1a_se_expand", 0, 0, {}]]]}, {"class_name": "Conv2D", "config": {"name": "block1a_project_conv", "trainable": true, "dtype": "float32", "filters": 32, "kernel_size": [1, 1], "strides": [1, 1], "padding": "same", "data_format": "channels_last", "dilation_rate": [1, 1], "groups": 1, "activation": "linear", "use_bias": false, "kernel_initializer": {"class_name": "VarianceScaling", "config": {"scale": 2.0, "mode": "fan_out", "distribution": "truncated_normal", "seed": null}}, "bias_initializer": {"class_name": "Zeros", "config": {}}, "kernel_regularizer": null, "bias_regularizer": null, "activity_regularizer": null, "kernel_constraint": null, "bias_constraint": null}, "name": "block1a_project_conv", "inbound_nodes": [[["block1a_se_excite", 0, 0, {}]]]}, {"class_name": "BatchNormalization", "config": {"name": "block1a_project_bn", "trainable": true, "dtype": "float32", "axis": [3], "momentum": 0.99, "epsilon": 0.001, "center": true, "scale": true, "beta_initializer": {"class_name": "Zeros", "config": {}}, "gamma_initializer": {"class_name": "Ones", "config": {}}, "moving_mean_initializer": {"class_name": "Zeros", "config": {}}, "moving_variance_initializer": {"class_name": "Ones", "config": {}}, "beta_regularizer": null, "gamma_regularizer": null, "beta_constraint": null, "gamma_constraint": null}, "name": "block1a_project_bn", "inbound_nodes": [[["block1a_project_conv", 0, 0, {}]]]}, {"class_name": "DepthwiseConv2D", "config": {"name": "block1b_dwconv", "trainable": true, "dtype": "float32", "kernel_size": [3, 3], "strides": [1, 1], "padding": "same", "data_format": "channels_last", "dilation_rate": [1, 1], "groups": 1, "activation": "linear", "use_bias": false, "bias_initializer": {"class_name": "Zeros", "config": {}}, "bias_regularizer": null, "activity_regularizer": null, "bias_constraint": null, "depth_multiplier": 1, "depthwise_initializer": {"class_name": "VarianceScaling", "config": {"scale": 2.0, "mode": "fan_out", "distribution": "truncated_normal", "seed": null}}, "depthwise_regularizer": null, "depthwise_constraint": null}, "name": "block1b_dwconv", "inbound_nodes": [[["block1a_project_bn", 0, 0, {}]]]}, {"class_name": "BatchNormalization", "config": {"name": "block1b_bn", "trainable": true, "dtype": "float32", "axis": [3], "momentum": 0.99, "epsilon": 0.001, "center": true, "scale": true, "beta_initializer": {"class_name": "Zeros", "config": {}}, "gamma_initializer": {"class_name": "Ones", "config": {}}, "moving_mean_initializer": {"class_name": "Zeros", "config": {}}, "moving_variance_initializer": {"class_name": "Ones", "config": {}}, "beta_regularizer": null, "gamma_regularizer": null, "beta_constraint": null, "gamma_constraint": null}, "name": "block1b_bn", "inbound_nodes": [[["block1b_dwconv", 0, 0, {}]]]}, {"class_name": "Activation", "config": {"name": "block1b_activation", "trainable": true, "dtype": "float32", "activation": "swish"}, "name": "block1b_activation", "inbound_nodes": [[["block1b_bn", 0, 0, {}]]]}, {"class_name": "GlobalAveragePooling2D", "config": {"name": "block1b_se_squeeze", "trainable": true, "dtype": "float32", "data_format": "channels_last"}, "name": "block1b_se_squeeze", "inbound_nodes": [[["block1b_activation", 0, 0, {}]]]}, {"class_name": "Reshape", "config": {"name": "block1b_se_reshape", "trainable": true, "dtype": "float32", "target_shape": [1, 1, 32]}, "name": "block1b_se_reshape", "inbound_nodes": [[["block1b_se_squeeze", 0, 0, {}]]]}, {"class_name": "Conv2D", "config": {"name": "block1b_se_reduce", "trainable": true, "dtype": "float32", "filters": 8, "kernel_size": [1, 1], "strides": [1, 1], "padding": "same", "data_format": "channels_last", "dilation_rate": [1, 1], "groups": 1, "activation": "swish", "use_bias": true, "kernel_initializer": {"class_name": "VarianceScaling", "config": {"scale": 2.0, "mode": "fan_out", "distribution": "truncated_normal", "seed": null}}, "bias_initializer": {"class_name": "Zeros", "config": {}}, "kernel_regularizer": null, "bias_regularizer": null, "activity_regularizer": null, "kernel_constraint": null, "bias_constraint": null}, "name": "block1b_se_reduce", "inbound_nodes": [[["block1b_se_reshape", 0, 0, {}]]]}, {"class_name": "Conv2D", "config": {"name": "block1b_se_expand", "trainable": true, "dtype": "float32", "filters": 32, "kernel_size": [1, 1], "strides": [1, 1], "padding": "same", "data_format": "channels_last", "dilation_rate": [1, 1], "groups": 1, "activation": "sigmoid", "use_bias": true, "kernel_initializer": {"class_name": "VarianceScaling", "config": {"scale": 2.0, "mode": "fan_out", "distribution": "truncated_normal", "seed": null}}, "bias_initializer": {"class_name": "Zeros", "config": {}}, "kernel_regularizer": null, "bias_regularizer": null, "activity_regularizer": null, "kernel_constraint": null, "bias_constraint": null}, "name": "block1b_se_expand", "inbound_nodes": [[["block1b_se_reduce", 0, 0, {}]]]}, {"class_name": "Multiply", "config": {"name": "block1b_se_excite", "trainable": true, "dtype": "float32"}, "name": "block1b_se_excite", "inbound_nodes": [[["block1b_activation", 0, 0, {}], ["block1b_se_expand", 0, 0, {}]]]}, {"class_name": "Conv2D", "config": {"name": "block1b_project_conv", "trainable": true, "dtype": "float32", "filters": 32, "kernel_size": [1, 1], "strides": [1, 1], "padding": "same", "data_format": "channels_last", "dilation_rate": [1, 1], "groups": 1, "activation": "linear", "use_bias": false, "kernel_initializer": {"class_name": "VarianceScaling", "config": {"scale": 2.0, "mode": "fan_out", "distribution": "truncated_normal", "seed": null}}, "bias_initializer": {"class_name": "Zeros", "config": {}}, "kernel_regularizer": null, "bias_regularizer": null, "activity_regularizer": null, "kernel_constraint": null, "bias_constraint": null}, "name": "block1b_project_conv", "inbound_nodes": [[["block1b_se_excite", 0, 0, {}]]]}, {"class_name": "BatchNormalization", "config": {"name": "block1b_project_bn", "trainable": true, "dtype": "float32", "axis": [3], "momentum": 0.99, "epsilon": 0.001, "center": true, "scale": true, "beta_initializer": {"class_name": "Zeros", "config": {}}, "gamma_initializer": {"class_name": "Ones", "config": {}}, "moving_mean_initializer": {"class_name": "Zeros", "config": {}}, "moving_variance_initializer": {"class_name": "Ones", "config": {}}, "beta_regularizer": null, "gamma_regularizer": null, "beta_constraint": null, "gamma_constraint": null}, "name": "block1b_project_bn", "inbound_nodes": [[["block1b_project_conv", 0, 0, {}]]]}, {"class_name": "Dropout", "config": {"name": "block1b_drop", "trainable": true, "dtype": "float32", "rate": 0.0036363636363636364, "noise_shape": [null, 1, 1, 1], "seed": null}, "name": "block1b_drop", "inbound_nodes": [[["block1b_project_bn", 0, 0, {}]]]}, {"class_name": "Add", "config": {"name": "block1b_add", "trainable": true, "dtype": "float32"}, "name": "block1b_add", "inbound_nodes": [[["block1b_drop", 0, 0, {}], ["block1a_project_bn", 0, 0, {}]]]}, {"class_name": "DepthwiseConv2D", "config": {"name": "block1c_dwconv", "trainable": true, "dtype": "float32", "kernel_size": [3, 3], "strides": [1, 1], "padding": "same", "data_format": "channels_last", "dilation_rate": [1, 1], "groups": 1, "activation": "linear", "use_bias": false, "bias_initializer": {"class_name": "Zeros", "config": {}}, "bias_regularizer": null, "activity_regularizer": null, "bias_constraint": null, "depth_multiplier": 1, "depthwise_initializer": {"class_name": "VarianceScaling", "config": {"scale": 2.0, "mode": "fan_out", "distribution": "truncated_normal", "seed": null}}, "depthwise_regularizer": null, "depthwise_constraint": null}, "name": "block1c_dwconv", "inbound_nodes": [[["block1b_add", 0, 0, {}]]]}, {"class_name": "BatchNormalization", "config": {"name": "block1c_bn", "trainable": true, "dtype": "float32", "axis": [3], "momentum": 0.99, "epsilon": 0.001, "center": true, "scale": true, "beta_initializer": {"class_name": "Zeros", "config": {}}, "gamma_initializer": {"class_name": "Ones", "config": {}}, "moving_mean_initializer": {"class_name": "Zeros", "config": {}}, "moving_variance_initializer": {"class_name": "Ones", "config": {}}, "beta_regularizer": null, "gamma_regularizer": null, "beta_constraint": null, "gamma_constraint": null}, "name": "block1c_bn", "inbound_nodes": [[["block1c_dwconv", 0, 0, {}]]]}, {"class_name": "Activation", "config": {"name": "block1c_activation", "trainable": true, "dtype": "float32", "activation": "swish"}, "name": "block1c_activation", "inbound_nodes": [[["block1c_bn", 0, 0, {}]]]}, {"class_name": "GlobalAveragePooling2D", "config": {"name": "block1c_se_squeeze", "trainable": true, "dtype": "float32", "data_format": "channels_last"}, "name": "block1c_se_squeeze", "inbound_nodes": [[["block1c_activation", 0, 0, {}]]]}, {"class_name": "Reshape", "config": {"name": "block1c_se_reshape", "trainable": true, "dtype": "float32", "target_shape": [1, 1, 32]}, "name": "block1c_se_reshape", "inbound_nodes": [[["block1c_se_squeeze", 0, 0, {}]]]}, {"class_name": "Conv2D", "config": {"name": "block1c_se_reduce", "trainable": true, "dtype": "float32", "filters": 8, "kernel_size": [1, 1], "strides": [1, 1], "padding": "same", "data_format": "channels_last", "dilation_rate": [1, 1], "groups": 1, "activation": "swish", "use_bias": true, "kernel_initializer": {"class_name": "VarianceScaling", "config": {"scale": 2.0, "mode": "fan_out", "distribution": "truncated_normal", "seed": null}}, "bias_initializer": {"class_name": "Zeros", "config": {}}, "kernel_regularizer": null, "bias_regularizer": null, "activity_regularizer": null, "kernel_constraint": null, "bias_constraint": null}, "name": "block1c_se_reduce", "inbound_nodes": [[["block1c_se_reshape", 0, 0, {}]]]}, {"class_name": "Conv2D", "config": {"name": "block1c_se_expand", "trainable": true, "dtype": "float32", "filters": 32, "kernel_size": [1, 1], "strides": [1, 1], "padding": "same", "data_format": "channels_last", "dilation_rate": [1, 1], "groups": 1, "activation": "sigmoid", "use_bias": true, "kernel_initializer": {"class_name": "VarianceScaling", "config": {"scale": 2.0, "mode": "fan_out", "distribution": "truncated_normal", "seed": null}}, "bias_initializer": {"class_name": "Zeros", "config": {}}, "kernel_regularizer": null, "bias_regularizer": null, "activity_regularizer": null, "kernel_constraint": null, "bias_constraint": null}, "name": "block1c_se_expand", "inbound_nodes": [[["block1c_se_reduce", 0, 0, {}]]]}, {"class_name": "Multiply", "config": {"name": "block1c_se_excite", "trainable": true, "dtype": "float32"}, "name": "block1c_se_excite", "inbound_nodes": [[["block1c_activation", 0, 0, {}], ["block1c_se_expand", 0, 0, {}]]]}, {"class_name": "Conv2D", "config": {"name": "block1c_project_conv", "trainable": true, "dtype": "float32", "filters": 32, "kernel_size": [1, 1], "strides": [1, 1], "padding": "same", "data_format": "channels_last", "dilation_rate": [1, 1], "groups": 1, "activation": "linear", "use_bias": false, "kernel_initializer": {"class_name": "VarianceScaling", "config": {"scale": 2.0, "mode": "fan_out", "distribution": "truncated_normal", "seed": null}}, "bias_initializer": {"class_name": "Zeros", "config": {}}, "kernel_regularizer": null, "bias_regularizer": null, "activity_regularizer": null, "kernel_constraint": null, "bias_constraint": null}, "name": "block1c_project_conv", "inbound_nodes": [[["block1c_se_excite", 0, 0, {}]]]}, {"class_name": "BatchNormalization", "config": {"name": "block1c_project_bn", "trainable": true, "dtype": "float32", "axis": [3], "momentum": 0.99, "epsilon": 0.001, "center": true, "scale": true, "beta_initializer": {"class_name": "Zeros", "config": {}}, "gamma_initializer": {"class_name": "Ones", "config": {}}, "moving_mean_initializer": {"class_name": "Zeros", "config": {}}, "moving_variance_initializer": {"class_name": "Ones", "config": {}}, "beta_regularizer": null, "gamma_regularizer": null, "beta_constraint": null, "gamma_constraint": null}, "name": "block1c_project_bn", "inbound_nodes": [[["block1c_project_conv", 0, 0, {}]]]}, {"class_name": "Dropout", "config": {"name": "block1c_drop", "trainable": true, "dtype": "float32", "rate": 0.007272727272727273, "noise_shape": [null, 1, 1, 1], "seed": null}, "name": "block1c_drop", "inbound_nodes": [[["block1c_project_bn", 0, 0, {}]]]}, {"class_name": "Add", "config": {"name": "block1c_add", "trainable": true, "dtype": "float32"}, "name": "block1c_add", "inbound_nodes": [[["block1c_drop", 0, 0, {}], ["block1b_add", 0, 0, {}]]]}, {"class_name": "DepthwiseConv2D", "config": {"name": "block1d_dwconv", "trainable": true, "dtype": "float32", "kernel_size": [3, 3], "strides": [1, 1], "padding": "same", "data_format": "channels_last", "dilation_rate": [1, 1], "groups": 1, "activation": "linear", "use_bias": false, "bias_initializer": {"class_name": "Zeros", "config": {}}, "bias_regularizer": null, "activity_regularizer": null, "bias_constraint": null, "depth_multiplier": 1, "depthwise_initializer": {"class_name": "VarianceScaling", "config": {"scale": 2.0, "mode": "fan_out", "distribution": "truncated_normal", "seed": null}}, "depthwise_regularizer": null, "depthwise_constraint": null}, "name": "block1d_dwconv", "inbound_nodes": [[["block1c_add", 0, 0, {}]]]}, {"class_name": "BatchNormalization", "config": {"name": "block1d_bn", "trainable": true, "dtype": "float32", "axis": [3], "momentum": 0.99, "epsilon": 0.001, "center": true, "scale": true, "beta_initializer": {"class_name": "Zeros", "config": {}}, "gamma_initializer": {"class_name": "Ones", "config": {}}, "moving_mean_initializer": {"class_name": "Zeros", "config": {}}, "moving_variance_initializer": {"class_name": "Ones", "config": {}}, "beta_regularizer": null, "gamma_regularizer": null, "beta_constraint": null, "gamma_constraint": null}, "name": "block1d_bn", "inbound_nodes": [[["block1d_dwconv", 0, 0, {}]]]}, {"class_name": "Activation", "config": {"name": "block1d_activation", "trainable": true, "dtype": "float32", "activation": "swish"}, "name": "block1d_activation", "inbound_nodes": [[["block1d_bn", 0, 0, {}]]]}, {"class_name": "GlobalAveragePooling2D", "config": {"name": "block1d_se_squeeze", "trainable": true, "dtype": "float32", "data_format": "channels_last"}, "name": "block1d_se_squeeze", "inbound_nodes": [[["block1d_activation", 0, 0, {}]]]}, {"class_name": "Reshape", "config": {"name": "block1d_se_reshape", "trainable": true, "dtype": "float32", "target_shape": [1, 1, 32]}, "name": "block1d_se_reshape", "inbound_nodes": [[["block1d_se_squeeze", 0, 0, {}]]]}, {"class_name": "Conv2D", "config": {"name": "block1d_se_reduce", "trainable": true, "dtype": "float32", "filters": 8, "kernel_size": [1, 1], "strides": [1, 1], "padding": "same", "data_format": "channels_last", "dilation_rate": [1, 1], "groups": 1, "activation": "swish", "use_bias": true, "kernel_initializer": {"class_name": "VarianceScaling", "config": {"scale": 2.0, "mode": "fan_out", "distribution": "truncated_normal", "seed": null}}, "bias_initializer": {"class_name": "Zeros", "config": {}}, "kernel_regularizer": null, "bias_regularizer": null, "activity_regularizer": null, "kernel_constraint": null, "bias_constraint": null}, "name": "block1d_se_reduce", "inbound_nodes": [[["block1d_se_reshape", 0, 0, {}]]]}, {"class_name": "Conv2D", "config": {"name": "block1d_se_expand", "trainable": true, "dtype": "float32", "filters": 32, "kernel_size": [1, 1], "strides": [1, 1], "padding": "same", "data_format": "channels_last", "dilation_rate": [1, 1], "groups": 1, "activation": "sigmoid", "use_bias": true, "kernel_initializer": {"class_name": "VarianceScaling", "config": {"scale": 2.0, "mode": "fan_out", "distribution": "truncated_normal", "seed": null}}, "bias_initializer": {"class_name": "Zeros", "config": {}}, "kernel_regularizer": null, "bias_regularizer": null, "activity_regularizer": null, "kernel_constraint": null, "bias_constraint": null}, "name": "block1d_se_expand", "inbound_nodes": [[["block1d_se_reduce", 0, 0, {}]]]}, {"class_name": "Multiply", "config": {"name": "block1d_se_excite", "trainable": true, "dtype": "float32"}, "name": "block1d_se_excite", "inbound_nodes": [[["block1d_activation", 0, 0, {}], ["block1d_se_expand", 0, 0, {}]]]}, {"class_name": "Conv2D", "config": {"name": "block1d_project_conv", "trainable": true, "dtype": "float32", "filters": 32, "kernel_size": [1, 1], "strides": [1, 1], "padding": "same", "data_format": "channels_last", "dilation_rate": [1, 1], "groups": 1, "activation": "linear", "use_bias": false, "kernel_initializer": {"class_name": "VarianceScaling", "config": {"scale": 2.0, "mode": "fan_out", "distribution": "truncated_normal", "seed": null}}, "bias_initializer": {"class_name": "Zeros", "config": {}}, "kernel_regularizer": null, "bias_regularizer": null, "activity_regularizer": null, "kernel_constraint": null, "bias_constraint": null}, "name": "block1d_project_conv", "inbound_nodes": [[["block1d_se_excite", 0, 0, {}]]]}, {"class_name": "BatchNormalization", "config": {"name": "block1d_project_bn", "trainable": true, "dtype": "float32", "axis": [3], "momentum": 0.99, "epsilon": 0.001, "center": true, "scale": true, "beta_initializer": {"class_name": "Zeros", "config": {}}, "gamma_initializer": {"class_name": "Ones", "config": {}}, "moving_mean_initializer": {"class_name": "Zeros", "config": {}}, "moving_variance_initializer": {"class_name": "Ones", "config": {}}, "beta_regularizer": null, "gamma_regularizer": null, "beta_constraint": null, "gamma_constraint": null}, "name": "block1d_project_bn", "inbound_nodes": [[["block1d_project_conv", 0, 0, {}]]]}, {"class_name": "Dropout", "config": {"name": "block1d_drop", "trainable": true, "dtype": "float32", "rate": 0.01090909090909091, "noise_shape": [null, 1, 1, 1], "seed": null}, "name": "block1d_drop", "inbound_nodes": [[["block1d_project_bn", 0, 0, {}]]]}, {"class_name": "Add", "config": {"name": "block1d_add", "trainable": true, "dtype": "float32"}, "name": "block1d_add", "inbound_nodes": [[["block1d_drop", 0, 0, {}], ["block1c_add", 0, 0, {}]]]}, {"class_name": "Conv2D", "config": {"name": "block2a_expand_conv", "trainable": true, "dtype": "float32", "filters": 192, "kernel_size": [1, 1], "strides": [1, 1], "padding": "same", "data_format": "channels_last", "dilation_rate": [1, 1], "groups": 1, "activation": "linear", "use_bias": false, "kernel_initializer": {"class_name": "VarianceScaling", "config": {"scale": 2.0, "mode": "fan_out", "distribution": "truncated_normal", "seed": null}}, "bias_initializer": {"class_name": "Zeros", "config": {}}, "kernel_regularizer": null, "bias_regularizer": null, "activity_regularizer": null, "kernel_constraint": null, "bias_constraint": null}, "name": "block2a_expand_conv", "inbound_nodes": [[["block1d_add", 0, 0, {}]]]}, {"class_name": "BatchNormalization", "config": {"name": "block2a_expand_bn", "trainable": true, "dtype": "float32", "axis": [3], "momentum": 0.99, "epsilon": 0.001, "center": true, "scale": true, "beta_initializer": {"class_name": "Zeros", "config": {}}, "gamma_initializer": {"class_name": "Ones", "config": {}}, "moving_mean_initializer": {"class_name": "Zeros", "config": {}}, "moving_variance_initializer": {"class_name": "Ones", "config": {}}, "beta_regularizer": null, "gamma_regularizer": null, "beta_constraint": null, "gamma_constraint": null}, "name": "block2a_expand_bn", "inbound_nodes": [[["block2a_expand_conv", 0, 0, {}]]]}, {"class_name": "Activation", "config": {"name": "block2a_expand_activation", "trainable": true, "dtype": "float32", "activation": "swish"}, "name": "block2a_expand_activation", "inbound_nodes": [[["block2a_expand_bn", 0, 0, {}]]]}, {"class_name": "ZeroPadding2D", "config": {"name": "block2a_dwconv_pad", "trainable": true, "dtype": "float32", "padding": [[0, 1], [0, 1]], "data_format": "channels_last"}, "name": "block2a_dwconv_pad", "inbound_nodes": [[["block2a_expand_activation", 0, 0, {}]]]}, {"class_name": "DepthwiseConv2D", "config": {"name": "block2a_dwconv", "trainable": true, "dtype": "float32", "kernel_size": [3, 3], "strides": [2, 2], "padding": "valid", "data_format": "channels_last", "dilation_rate": [1, 1], "groups": 1, "activation": "linear", "use_bias": false, "bias_initializer": {"class_name": "Zeros", "config": {}}, "bias_regularizer": null, "activity_regularizer": null, "bias_constraint": null, "depth_multiplier": 1, "depthwise_initializer": {"class_name": "VarianceScaling", "config": {"scale": 2.0, "mode": "fan_out", "distribution": "truncated_normal", "seed": null}}, "depthwise_regularizer": null, "depthwise_constraint": null}, "name": "block2a_dwconv", "inbound_nodes": [[["block2a_dwconv_pad", 0, 0, {}]]]}, {"class_name": "BatchNormalization", "config": {"name": "block2a_bn", "trainable": true, "dtype": "float32", "axis": [3], "momentum": 0.99, "epsilon": 0.001, "center": true, "scale": true, "beta_initializer": {"class_name": "Zeros", "config": {}}, "gamma_initializer": {"class_name": "Ones", "config": {}}, "moving_mean_initializer": {"class_name": "Zeros", "config": {}}, "moving_variance_initializer": {"class_name": "Ones", "config": {}}, "beta_regularizer": null, "gamma_regularizer": null, "beta_constraint": null, "gamma_constraint": null}, "name": "block2a_bn", "inbound_nodes": [[["block2a_dwconv", 0, 0, {}]]]}, {"class_name": "Activation", "config": {"name": "block2a_activation", "trainable": true, "dtype": "float32", "activation": "swish"}, "name": "block2a_activation", "inbound_nodes": [[["block2a_bn", 0, 0, {}]]]}, {"class_name": "GlobalAveragePooling2D", "config": {"name": "block2a_se_squeeze", "trainable": true, "dtype": "float32", "data_format": "channels_last"}, "name": "block2a_se_squeeze", "inbound_nodes": [[["block2a_activation", 0, 0, {}]]]}, {"class_name": "Reshape", "config": {"name": "block2a_se_reshape", "trainable": true, "dtype": "float32", "target_shape": [1, 1, 192]}, "name": "block2a_se_reshape", "inbound_nodes": [[["block2a_se_squeeze", 0, 0, {}]]]}, {"class_name": "Conv2D", "config": {"name": "block2a_se_reduce", "trainable": true, "dtype": "float32", "filters": 8, "kernel_size": [1, 1], "strides": [1, 1], "padding": "same", "data_format": "channels_last", "dilation_rate": [1, 1], "groups": 1, "activation": "swish", "use_bias": true, "kernel_initializer": {"class_name": "VarianceScaling", "config": {"scale": 2.0, "mode": "fan_out", "distribution": "truncated_normal", "seed": null}}, "bias_initializer": {"class_name": "Zeros", "config": {}}, "kernel_regularizer": null, "bias_regularizer": null, "activity_regularizer": null, "kernel_constraint": null, "bias_constraint": null}, "name": "block2a_se_reduce", "inbound_nodes": [[["block2a_se_reshape", 0, 0, {}]]]}, {"class_name": "Conv2D", "config": {"name": "block2a_se_expand", "trainable": true, "dtype": "float32", "filters": 192, "kernel_size": [1, 1], "strides": [1, 1], "padding": "same", "data_format": "channels_last", "dilation_rate": [1, 1], "groups": 1, "activation": "sigmoid", "use_bias": true, "kernel_initializer": {"class_name": "VarianceScaling", "config": {"scale": 2.0, "mode": "fan_out", "distribution": "truncated_normal", "seed": null}}, "bias_initializer": {"class_name": "Zeros", "config": {}}, "kernel_regularizer": null, "bias_regularizer": null, "activity_regularizer": null, "kernel_constraint": null, "bias_constraint": null}, "name": "block2a_se_expand", "inbound_nodes": [[["block2a_se_reduce", 0, 0, {}]]]}, {"class_name": "Multiply", "config": {"name": "block2a_se_excite", "trainable": true, "dtype": "float32"}, "name": "block2a_se_excite", "inbound_nodes": [[["block2a_activation", 0, 0, {}], ["block2a_se_expand", 0, 0, {}]]]}, {"class_name": "Conv2D", "config": {"name": "block2a_project_conv", "trainable": true, "dtype": "float32", "filters": 48, "kernel_size": [1, 1], "strides": [1, 1], "padding": "same", "data_format": "channels_last", "dilation_rate": [1, 1], "groups": 1, "activation": "linear", "use_bias": false, "kernel_initializer": {"class_name": "VarianceScaling", "config": {"scale": 2.0, "mode": "fan_out", "distribution": "truncated_normal", "seed": null}}, "bias_initializer": {"class_name": "Zeros", "config": {}}, "kernel_regularizer": null, "bias_regularizer": null, "activity_regularizer": null, "kernel_constraint": null, "bias_constraint": null}, "name": "block2a_project_conv", "inbound_nodes": [[["block2a_se_excite", 0, 0, {}]]]}, {"class_name": "BatchNormalization", "config": {"name": "block2a_project_bn", "trainable": true, "dtype": "float32", "axis": [3], "momentum": 0.99, "epsilon": 0.001, "center": true, "scale": true, "beta_initializer": {"class_name": "Zeros", "config": {}}, "gamma_initializer": {"class_name": "Ones", "config": {}}, "moving_mean_initializer": {"class_name": "Zeros", "config": {}}, "moving_variance_initializer": {"class_name": "Ones", "config": {}}, "beta_regularizer": null, "gamma_regularizer": null, "beta_constraint": null, "gamma_constraint": null}, "name": "block2a_project_bn", "inbound_nodes": [[["block2a_project_conv", 0, 0, {}]]]}, {"class_name": "Conv2D", "config": {"name": "block2b_expand_conv", "trainable": true, "dtype": "float32", "filters": 288, "kernel_size": [1, 1], "strides": [1, 1], "padding": "same", "data_format": "channels_last", "dilation_rate": [1, 1], "groups": 1, "activation": "linear", "use_bias": false, "kernel_initializer": {"class_name": "VarianceScaling", "config": {"scale": 2.0, "mode": "fan_out", "distribution": "truncated_normal", "seed": null}}, "bias_initializer": {"class_name": "Zeros", "config": {}}, "kernel_regularizer": null, "bias_regularizer": null, "activity_regularizer": null, "kernel_constraint": null, "bias_constraint": null}, "name": "block2b_expand_conv", "inbound_nodes": [[["block2a_project_bn", 0, 0, {}]]]}, {"class_name": "BatchNormalization", "config": {"name": "block2b_expand_bn", "trainable": true, "dtype": "float32", "axis": [3], "momentum": 0.99, "epsilon": 0.001, "center": true, "scale": true, "beta_initializer": {"class_name": "Zeros", "config": {}}, "gamma_initializer": {"class_name": "Ones", "config": {}}, "moving_mean_initializer": {"class_name": "Zeros", "config": {}}, "moving_variance_initializer": {"class_name": "Ones", "config": {}}, "beta_regularizer": null, "gamma_regularizer": null, "beta_constraint": null, "gamma_constraint": null}, "name": "block2b_expand_bn", "inbound_nodes": [[["block2b_expand_conv", 0, 0, {}]]]}, {"class_name": "Activation", "config": {"name": "block2b_expand_activation", "trainable": true, "dtype": "float32", "activation": "swish"}, "name": "block2b_expand_activation", "inbound_nodes": [[["block2b_expand_bn", 0, 0, {}]]]}, {"class_name": "DepthwiseConv2D", "config": {"name": "block2b_dwconv", "trainable": true, "dtype": "float32", "kernel_size": [3, 3], "strides": [1, 1], "padding": "same", "data_format": "channels_last", "dilation_rate": [1, 1], "groups": 1, "activation": "linear", "use_bias": false, "bias_initializer": {"class_name": "Zeros", "config": {}}, "bias_regularizer": null, "activity_regularizer": null, "bias_constraint": null, "depth_multiplier": 1, "depthwise_initializer": {"class_name": "VarianceScaling", "config": {"scale": 2.0, "mode": "fan_out", "distribution": "truncated_normal", "seed": null}}, "depthwise_regularizer": null, "depthwise_constraint": null}, "name": "block2b_dwconv", "inbound_nodes": [[["block2b_expand_activation", 0, 0, {}]]]}, {"class_name": "BatchNormalization", "config": {"name": "block2b_bn", "trainable": true, "dtype": "float32", "axis": [3], "momentum": 0.99, "epsilon": 0.001, "center": true, "scale": true, "beta_initializer": {"class_name": "Zeros", "config": {}}, "gamma_initializer": {"class_name": "Ones", "config": {}}, "moving_mean_initializer": {"class_name": "Zeros", "config": {}}, "moving_variance_initializer": {"class_name": "Ones", "config": {}}, "beta_regularizer": null, "gamma_regularizer": null, "beta_constraint": null, "gamma_constraint": null}, "name": "block2b_bn", "inbound_nodes": [[["block2b_dwconv", 0, 0, {}]]]}, {"class_name": "Activation", "config": {"name": "block2b_activation", "trainable": true, "dtype": "float32", "activation": "swish"}, "name": "block2b_activation", "inbound_nodes": [[["block2b_bn", 0, 0, {}]]]}, {"class_name": "GlobalAveragePooling2D", "config": {"name": "block2b_se_squeeze", "trainable": true, "dtype": "float32", "data_format": "channels_last"}, "name": "block2b_se_squeeze", "inbound_nodes": [[["block2b_activation", 0, 0, {}]]]}, {"class_name": "Reshape", "config": {"name": "block2b_se_reshape", "trainable": true, "dtype": "float32", "target_shape": [1, 1, 288]}, "name": "block2b_se_reshape", "inbound_nodes": [[["block2b_se_squeeze", 0, 0, {}]]]}, {"class_name": "Conv2D", "config": {"name": "block2b_se_reduce", "trainable": true, "dtype": "float32", "filters": 12, "kernel_size": [1, 1], "strides": [1, 1], "padding": "same", "data_format": "channels_last", "dilation_rate": [1, 1], "groups": 1, "activation": "swish", "use_bias": true, "kernel_initializer": {"class_name": "VarianceScaling", "config": {"scale": 2.0, "mode": "fan_out", "distribution": "truncated_normal", "seed": null}}, "bias_initializer": {"class_name": "Zeros", "config": {}}, "kernel_regularizer": null, "bias_regularizer": null, "activity_regularizer": null, "kernel_constraint": null, "bias_constraint": null}, "name": "block2b_se_reduce", "inbound_nodes": [[["block2b_se_reshape", 0, 0, {}]]]}, {"class_name": "Conv2D", "config": {"name": "block2b_se_expand", "trainable": true, "dtype": "float32", "filters": 288, "kernel_size": [1, 1], "strides": [1, 1], "padding": "same", "data_format": "channels_last", "dilation_rate": [1, 1], "groups": 1, "activation": "sigmoid", "use_bias": true, "kernel_initializer": {"class_name": "VarianceScaling", "config": {"scale": 2.0, "mode": "fan_out", "distribution": "truncated_normal", "seed": null}}, "bias_initializer": {"class_name": "Zeros", "config": {}}, "kernel_regularizer": null, "bias_regularizer": null, "activity_regularizer": null, "kernel_constraint": null, "bias_constraint": null}, "name": "block2b_se_expand", "inbound_nodes": [[["block2b_se_reduce", 0, 0, {}]]]}, {"class_name": "Multiply", "config": {"name": "block2b_se_excite", "trainable": true, "dtype": "float32"}, "name": "block2b_se_excite", "inbound_nodes": [[["block2b_activation", 0, 0, {}], ["block2b_se_expand", 0, 0, {}]]]}, {"class_name": "Conv2D", "config": {"name": "block2b_project_conv", "trainable": true, "dtype": "float32", "filters": 48, "kernel_size": [1, 1], "strides": [1, 1], "padding": "same", "data_format": "channels_last", "dilation_rate": [1, 1], "groups": 1, "activation": "linear", "use_bias": false, "kernel_initializer": {"class_name": "VarianceScaling", "config": {"scale": 2.0, "mode": "fan_out", "distribution": "truncated_normal", "seed": null}}, "bias_initializer": {"class_name": "Zeros", "config": {}}, "kernel_regularizer": null, "bias_regularizer": null, "activity_regularizer": null, "kernel_constraint": null, "bias_constraint": null}, "name": "block2b_project_conv", "inbound_nodes": [[["block2b_se_excite", 0, 0, {}]]]}, {"class_name": "BatchNormalization", "config": {"name": "block2b_project_bn", "trainable": true, "dtype": "float32", "axis": [3], "momentum": 0.99, "epsilon": 0.001, "center": true, "scale": true, "beta_initializer": {"class_name": "Zeros", "config": {}}, "gamma_initializer": {"class_name": "Ones", "config": {}}, "moving_mean_initializer": {"class_name": "Zeros", "config": {}}, "moving_variance_initializer": {"class_name": "Ones", "config": {}}, "beta_regularizer": null, "gamma_regularizer": null, "beta_constraint": null, "gamma_constraint": null}, "name": "block2b_project_bn", "inbound_nodes": [[["block2b_project_conv", 0, 0, {}]]]}, {"class_name": "Dropout", "config": {"name": "block2b_drop", "trainable": true, "dtype": "float32", "rate": 0.01818181818181818, "noise_shape": [null, 1, 1, 1], "seed": null}, "name": "block2b_drop", "inbound_nodes": [[["block2b_project_bn", 0, 0, {}]]]}, {"class_name": "Add", "config": {"name": "block2b_add", "trainable": true, "dtype": "float32"}, "name": "block2b_add", "inbound_nodes": [[["block2b_drop", 0, 0, {}], ["block2a_project_bn", 0, 0, {}]]]}, {"class_name": "Conv2D", "config": {"name": "block2c_expand_conv", "trainable": true, "dtype": "float32", "filters": 288, "kernel_size": [1, 1], "strides": [1, 1], "padding": "same", "data_format": "channels_last", "dilation_rate": [1, 1], "groups": 1, "activation": "linear", "use_bias": false, "kernel_initializer": {"class_name": "VarianceScaling", "config": {"scale": 2.0, "mode": "fan_out", "distribution": "truncated_normal", "seed": null}}, "bias_initializer": {"class_name": "Zeros", "config": {}}, "kernel_regularizer": null, "bias_regularizer": null, "activity_regularizer": null, "kernel_constraint": null, "bias_constraint": null}, "name": "block2c_expand_conv", "inbound_nodes": [[["block2b_add", 0, 0, {}]]]}, {"class_name": "BatchNormalization", "config": {"name": "block2c_expand_bn", "trainable": true, "dtype": "float32", "axis": [3], "momentum": 0.99, "epsilon": 0.001, "center": true, "scale": true, "beta_initializer": {"class_name": "Zeros", "config": {}}, "gamma_initializer": {"class_name": "Ones", "config": {}}, "moving_mean_initializer": {"class_name": "Zeros", "config": {}}, "moving_variance_initializer": {"class_name": "Ones", "config": {}}, "beta_regularizer": null, "gamma_regularizer": null, "beta_constraint": null, "gamma_constraint": null}, "name": "block2c_expand_bn", "inbound_nodes": [[["block2c_expand_conv", 0, 0, {}]]]}, {"class_name": "Activation", "config": {"name": "block2c_expand_activation", "trainable": true, "dtype": "float32", "activation": "swish"}, "name": "block2c_expand_activation", "inbound_nodes": [[["block2c_expand_bn", 0, 0, {}]]]}, {"class_name": "DepthwiseConv2D", "config": {"name": "block2c_dwconv", "trainable": true, "dtype": "float32", "kernel_size": [3, 3], "strides": [1, 1], "padding": "same", "data_format": "channels_last", "dilation_rate": [1, 1], "groups": 1, "activation": "linear", "use_bias": false, "bias_initializer": {"class_name": "Zeros", "config": {}}, "bias_regularizer": null, "activity_regularizer": null, "bias_constraint": null, "depth_multiplier": 1, "depthwise_initializer": {"class_name": "VarianceScaling", "config": {"scale": 2.0, "mode": "fan_out", "distribution": "truncated_normal", "seed": null}}, "depthwise_regularizer": null, "depthwise_constraint": null}, "name": "block2c_dwconv", "inbound_nodes": [[["block2c_expand_activation", 0, 0, {}]]]}, {"class_name": "BatchNormalization", "config": {"name": "block2c_bn", "trainable": true, "dtype": "float32", "axis": [3], "momentum": 0.99, "epsilon": 0.001, "center": true, "scale": true, "beta_initializer": {"class_name": "Zeros", "config": {}}, "gamma_initializer": {"class_name": "Ones", "config": {}}, "moving_mean_initializer": {"class_name": "Zeros", "config": {}}, "moving_variance_initializer": {"class_name": "Ones", "config": {}}, "beta_regularizer": null, "gamma_regularizer": null, "beta_constraint": null, "gamma_constraint": null}, "name": "block2c_bn", "inbound_nodes": [[["block2c_dwconv", 0, 0, {}]]]}, {"class_name": "Activation", "config": {"name": "block2c_activation", "trainable": true, "dtype": "float32", "activation": "swish"}, "name": "block2c_activation", "inbound_nodes": [[["block2c_bn", 0, 0, {}]]]}, {"class_name": "GlobalAveragePooling2D", "config": {"name": "block2c_se_squeeze", "trainable": true, "dtype": "float32", "data_format": "channels_last"}, "name": "block2c_se_squeeze", "inbound_nodes": [[["block2c_activation", 0, 0, {}]]]}, {"class_name": "Reshape", "config": {"name": "block2c_se_reshape", "trainable": true, "dtype": "float32", "target_shape": [1, 1, 288]}, "name": "block2c_se_reshape", "inbound_nodes": [[["block2c_se_squeeze", 0, 0, {}]]]}, {"class_name": "Conv2D", "config": {"name": "block2c_se_reduce", "trainable": true, "dtype": "float32", "filters": 12, "kernel_size": [1, 1], "strides": [1, 1], "padding": "same", "data_format": "channels_last", "dilation_rate": [1, 1], "groups": 1, "activation": "swish", "use_bias": true, "kernel_initializer": {"class_name": "VarianceScaling", "config": {"scale": 2.0, "mode": "fan_out", "distribution": "truncated_normal", "seed": null}}, "bias_initializer": {"class_name": "Zeros", "config": {}}, "kernel_regularizer": null, "bias_regularizer": null, "activity_regularizer": null, "kernel_constraint": null, "bias_constraint": null}, "name": "block2c_se_reduce", "inbound_nodes": [[["block2c_se_reshape", 0, 0, {}]]]}, {"class_name": "Conv2D", "config": {"name": "block2c_se_expand", "trainable": true, "dtype": "float32", "filters": 288, "kernel_size": [1, 1], "strides": [1, 1], "padding": "same", "data_format": "channels_last", "dilation_rate": [1, 1], "groups": 1, "activation": "sigmoid", "use_bias": true, "kernel_initializer": {"class_name": "VarianceScaling", "config": {"scale": 2.0, "mode": "fan_out", "distribution": "truncated_normal", "seed": null}}, "bias_initializer": {"class_name": "Zeros", "config": {}}, "kernel_regularizer": null, "bias_regularizer": null, "activity_regularizer": null, "kernel_constraint": null, "bias_constraint": null}, "name": "block2c_se_expand", "inbound_nodes": [[["block2c_se_reduce", 0, 0, {}]]]}, {"class_name": "Multiply", "config": {"name": "block2c_se_excite", "trainable": true, "dtype": "float32"}, "name": "block2c_se_excite", "inbound_nodes": [[["block2c_activation", 0, 0, {}], ["block2c_se_expand", 0, 0, {}]]]}, {"class_name": "Conv2D", "config": {"name": "block2c_project_conv", "trainable": true, "dtype": "float32", "filters": 48, "kernel_size": [1, 1], "strides": [1, 1], "padding": "same", "data_format": "channels_last", "dilation_rate": [1, 1], "groups": 1, "activation": "linear", "use_bias": false, "kernel_initializer": {"class_name": "VarianceScaling", "config": {"scale": 2.0, "mode": "fan_out", "distribution": "truncated_normal", "seed": null}}, "bias_initializer": {"class_name": "Zeros", "config": {}}, "kernel_regularizer": null, "bias_regularizer": null, "activity_regularizer": null, "kernel_constraint": null, "bias_constraint": null}, "name": "block2c_project_conv", "inbound_nodes": [[["block2c_se_excite", 0, 0, {}]]]}, {"class_name": "BatchNormalization", "config": {"name": "block2c_project_bn", "trainable": true, "dtype": "float32", "axis": [3], "momentum": 0.99, "epsilon": 0.001, "center": true, "scale": true, "beta_initializer": {"class_name": "Zeros", "config": {}}, "gamma_initializer": {"class_name": "Ones", "config": {}}, "moving_mean_initializer": {"class_name": "Zeros", "config": {}}, "moving_variance_initializer": {"class_name": "Ones", "config": {}}, "beta_regularizer": null, "gamma_regularizer": null, "beta_constraint": null, "gamma_constraint": null}, "name": "block2c_project_bn", "inbound_nodes": [[["block2c_project_conv", 0, 0, {}]]]}, {"class_name": "Dropout", "config": {"name": "block2c_drop", "trainable": true, "dtype": "float32", "rate": 0.02181818181818182, "noise_shape": [null, 1, 1, 1], "seed": null}, "name": "block2c_drop", "inbound_nodes": [[["block2c_project_bn", 0, 0, {}]]]}, {"class_name": "Add", "config": {"name": "block2c_add", "trainable": true, "dtype": "float32"}, "name": "block2c_add", "inbound_nodes": [[["block2c_drop", 0, 0, {}], ["block2b_add", 0, 0, {}]]]}, {"class_name": "Conv2D", "config": {"name": "block2d_expand_conv", "trainable": true, "dtype": "float32", "filters": 288, "kernel_size": [1, 1], "strides": [1, 1], "padding": "same", "data_format": "channels_last", "dilation_rate": [1, 1], "groups": 1, "activation": "linear", "use_bias": false, "kernel_initializer": {"class_name": "VarianceScaling", "config": {"scale": 2.0, "mode": "fan_out", "distribution": "truncated_normal", "seed": null}}, "bias_initializer": {"class_name": "Zeros", "config": {}}, "kernel_regularizer": null, "bias_regularizer": null, "activity_regularizer": null, "kernel_constraint": null, "bias_constraint": null}, "name": "block2d_expand_conv", "inbound_nodes": [[["block2c_add", 0, 0, {}]]]}, {"class_name": "BatchNormalization", "config": {"name": "block2d_expand_bn", "trainable": true, "dtype": "float32", "axis": [3], "momentum": 0.99, "epsilon": 0.001, "center": true, "scale": true, "beta_initializer": {"class_name": "Zeros", "config": {}}, "gamma_initializer": {"class_name": "Ones", "config": {}}, "moving_mean_initializer": {"class_name": "Zeros", "config": {}}, "moving_variance_initializer": {"class_name": "Ones", "config": {}}, "beta_regularizer": null, "gamma_regularizer": null, "beta_constraint": null, "gamma_constraint": null}, "name": "block2d_expand_bn", "inbound_nodes": [[["block2d_expand_conv", 0, 0, {}]]]}, {"class_name": "Activation", "config": {"name": "block2d_expand_activation", "trainable": true, "dtype": "float32", "activation": "swish"}, "name": "block2d_expand_activation", "inbound_nodes": [[["block2d_expand_bn", 0, 0, {}]]]}, {"class_name": "DepthwiseConv2D", "config": {"name": "block2d_dwconv", "trainable": true, "dtype": "float32", "kernel_size": [3, 3], "strides": [1, 1], "padding": "same", "data_format": "channels_last", "dilation_rate": [1, 1], "groups": 1, "activation": "linear", "use_bias": false, "bias_initializer": {"class_name": "Zeros", "config": {}}, "bias_regularizer": null, "activity_regularizer": null, "bias_constraint": null, "depth_multiplier": 1, "depthwise_initializer": {"class_name": "VarianceScaling", "config": {"scale": 2.0, "mode": "fan_out", "distribution": "truncated_normal", "seed": null}}, "depthwise_regularizer": null, "depthwise_constraint": null}, "name": "block2d_dwconv", "inbound_nodes": [[["block2d_expand_activation", 0, 0, {}]]]}, {"class_name": "BatchNormalization", "config": {"name": "block2d_bn", "trainable": true, "dtype": "float32", "axis": [3], "momentum": 0.99, "epsilon": 0.001, "center": true, "scale": true, "beta_initializer": {"class_name": "Zeros", "config": {}}, "gamma_initializer": {"class_name": "Ones", "config": {}}, "moving_mean_initializer": {"class_name": "Zeros", "config": {}}, "moving_variance_initializer": {"class_name": "Ones", "config": {}}, "beta_regularizer": null, "gamma_regularizer": null, "beta_constraint": null, "gamma_constraint": null}, "name": "block2d_bn", "inbound_nodes": [[["block2d_dwconv", 0, 0, {}]]]}, {"class_name": "Activation", "config": {"name": "block2d_activation", "trainable": true, "dtype": "float32", "activation": "swish"}, "name": "block2d_activation", "inbound_nodes": [[["block2d_bn", 0, 0, {}]]]}, {"class_name": "GlobalAveragePooling2D", "config": {"name": "block2d_se_squeeze", "trainable": true, "dtype": "float32", "data_format": "channels_last"}, "name": "block2d_se_squeeze", "inbound_nodes": [[["block2d_activation", 0, 0, {}]]]}, {"class_name": "Reshape", "config": {"name": "block2d_se_reshape", "trainable": true, "dtype": "float32", "target_shape": [1, 1, 288]}, "name": "block2d_se_reshape", "inbound_nodes": [[["block2d_se_squeeze", 0, 0, {}]]]}, {"class_name": "Conv2D", "config": {"name": "block2d_se_reduce", "trainable": true, "dtype": "float32", "filters": 12, "kernel_size": [1, 1], "strides": [1, 1], "padding": "same", "data_format": "channels_last", "dilation_rate": [1, 1], "groups": 1, "activation": "swish", "use_bias": true, "kernel_initializer": {"class_name": "VarianceScaling", "config": {"scale": 2.0, "mode": "fan_out", "distribution": "truncated_normal", "seed": null}}, "bias_initializer": {"class_name": "Zeros", "config": {}}, "kernel_regularizer": null, "bias_regularizer": null, "activity_regularizer": null, "kernel_constraint": null, "bias_constraint": null}, "name": "block2d_se_reduce", "inbound_nodes": [[["block2d_se_reshape", 0, 0, {}]]]}, {"class_name": "Conv2D", "config": {"name": "block2d_se_expand", "trainable": true, "dtype": "float32", "filters": 288, "kernel_size": [1, 1], "strides": [1, 1], "padding": "same", "data_format": "channels_last", "dilation_rate": [1, 1], "groups": 1, "activation": "sigmoid", "use_bias": true, "kernel_initializer": {"class_name": "VarianceScaling", "config": {"scale": 2.0, "mode": "fan_out", "distribution": "truncated_normal", "seed": null}}, "bias_initializer": {"class_name": "Zeros", "config": {}}, "kernel_regularizer": null, "bias_regularizer": null, "activity_regularizer": null, "kernel_constraint": null, "bias_constraint": null}, "name": "block2d_se_expand", "inbound_nodes": [[["block2d_se_reduce", 0, 0, {}]]]}, {"class_name": "Multiply", "config": {"name": "block2d_se_excite", "trainable": true, "dtype": "float32"}, "name": "block2d_se_excite", "inbound_nodes": [[["block2d_activation", 0, 0, {}], ["block2d_se_expand", 0, 0, {}]]]}, {"class_name": "Conv2D", "config": {"name": "block2d_project_conv", "trainable": true, "dtype": "float32", "filters": 48, "kernel_size": [1, 1], "strides": [1, 1], "padding": "same", "data_format": "channels_last", "dilation_rate": [1, 1], "groups": 1, "activation": "linear", "use_bias": false, "kernel_initializer": {"class_name": "VarianceScaling", "config": {"scale": 2.0, "mode": "fan_out", "distribution": "truncated_normal", "seed": null}}, "bias_initializer": {"class_name": "Zeros", "config": {}}, "kernel_regularizer": null, "bias_regularizer": null, "activity_regularizer": null, "kernel_constraint": null, "bias_constraint": null}, "name": "block2d_project_conv", "inbound_nodes": [[["block2d_se_excite", 0, 0, {}]]]}, {"class_name": "BatchNormalization", "config": {"name": "block2d_project_bn", "trainable": true, "dtype": "float32", "axis": [3], "momentum": 0.99, "epsilon": 0.001, "center": true, "scale": true, "beta_initializer": {"class_name": "Zeros", "config": {}}, "gamma_initializer": {"class_name": "Ones", "config": {}}, "moving_mean_initializer": {"class_name": "Zeros", "config": {}}, "moving_variance_initializer": {"class_name": "Ones", "config": {}}, "beta_regularizer": null, "gamma_regularizer": null, "beta_constraint": null, "gamma_constraint": null}, "name": "block2d_project_bn", "inbound_nodes": [[["block2d_project_conv", 0, 0, {}]]]}, {"class_name": "Dropout", "config": {"name": "block2d_drop", "trainable": true, "dtype": "float32", "rate": 0.025454545454545455, "noise_shape": [null, 1, 1, 1], "seed": null}, "name": "block2d_drop", "inbound_nodes": [[["block2d_project_bn", 0, 0, {}]]]}, {"class_name": "Add", "config": {"name": "block2d_add", "trainable": true, "dtype": "float32"}, "name": "block2d_add", "inbound_nodes": [[["block2d_drop", 0, 0, {}], ["block2c_add", 0, 0, {}]]]}, {"class_name": "Conv2D", "config": {"name": "block2e_expand_conv", "trainable": true, "dtype": "float32", "filters": 288, "kernel_size": [1, 1], "strides": [1, 1], "padding": "same", "data_format": "channels_last", "dilation_rate": [1, 1], "groups": 1, "activation": "linear", "use_bias": false, "kernel_initializer": {"class_name": "VarianceScaling", "config": {"scale": 2.0, "mode": "fan_out", "distribution": "truncated_normal", "seed": null}}, "bias_initializer": {"class_name": "Zeros", "config": {}}, "kernel_regularizer": null, "bias_regularizer": null, "activity_regularizer": null, "kernel_constraint": null, "bias_constraint": null}, "name": "block2e_expand_conv", "inbound_nodes": [[["block2d_add", 0, 0, {}]]]}, {"class_name": "BatchNormalization", "config": {"name": "block2e_expand_bn", "trainable": true, "dtype": "float32", "axis": [3], "momentum": 0.99, "epsilon": 0.001, "center": true, "scale": true, "beta_initializer": {"class_name": "Zeros", "config": {}}, "gamma_initializer": {"class_name": "Ones", "config": {}}, "moving_mean_initializer": {"class_name": "Zeros", "config": {}}, "moving_variance_initializer": {"class_name": "Ones", "config": {}}, "beta_regularizer": null, "gamma_regularizer": null, "beta_constraint": null, "gamma_constraint": null}, "name": "block2e_expand_bn", "inbound_nodes": [[["block2e_expand_conv", 0, 0, {}]]]}, {"class_name": "Activation", "config": {"name": "block2e_expand_activation", "trainable": true, "dtype": "float32", "activation": "swish"}, "name": "block2e_expand_activation", "inbound_nodes": [[["block2e_expand_bn", 0, 0, {}]]]}, {"class_name": "DepthwiseConv2D", "config": {"name": "block2e_dwconv", "trainable": true, "dtype": "float32", "kernel_size": [3, 3], "strides": [1, 1], "padding": "same", "data_format": "channels_last", "dilation_rate": [1, 1], "groups": 1, "activation": "linear", "use_bias": false, "bias_initializer": {"class_name": "Zeros", "config": {}}, "bias_regularizer": null, "activity_regularizer": null, "bias_constraint": null, "depth_multiplier": 1, "depthwise_initializer": {"class_name": "VarianceScaling", "config": {"scale": 2.0, "mode": "fan_out", "distribution": "truncated_normal", "seed": null}}, "depthwise_regularizer": null, "depthwise_constraint": null}, "name": "block2e_dwconv", "inbound_nodes": [[["block2e_expand_activation", 0, 0, {}]]]}, {"class_name": "BatchNormalization", "config": {"name": "block2e_bn", "trainable": true, "dtype": "float32", "axis": [3], "momentum": 0.99, "epsilon": 0.001, "center": true, "scale": true, "beta_initializer": {"class_name": "Zeros", "config": {}}, "gamma_initializer": {"class_name": "Ones", "config": {}}, "moving_mean_initializer": {"class_name": "Zeros", "config": {}}, "moving_variance_initializer": {"class_name": "Ones", "config": {}}, "beta_regularizer": null, "gamma_regularizer": null, "beta_constraint": null, "gamma_constraint": null}, "name": "block2e_bn", "inbound_nodes": [[["block2e_dwconv", 0, 0, {}]]]}, {"class_name": "Activation", "config": {"name": "block2e_activation", "trainable": true, "dtype": "float32", "activation": "swish"}, "name": "block2e_activation", "inbound_nodes": [[["block2e_bn", 0, 0, {}]]]}, {"class_name": "GlobalAveragePooling2D", "config": {"name": "block2e_se_squeeze", "trainable": true, "dtype": "float32", "data_format": "channels_last"}, "name": "block2e_se_squeeze", "inbound_nodes": [[["block2e_activation", 0, 0, {}]]]}, {"class_name": "Reshape", "config": {"name": "block2e_se_reshape", "trainable": true, "dtype": "float32", "target_shape": [1, 1, 288]}, "name": "block2e_se_reshape", "inbound_nodes": [[["block2e_se_squeeze", 0, 0, {}]]]}, {"class_name": "Conv2D", "config": {"name": "block2e_se_reduce", "trainable": true, "dtype": "float32", "filters": 12, "kernel_size": [1, 1], "strides": [1, 1], "padding": "same", "data_format": "channels_last", "dilation_rate": [1, 1], "groups": 1, "activation": "swish", "use_bias": true, "kernel_initializer": {"class_name": "VarianceScaling", "config": {"scale": 2.0, "mode": "fan_out", "distribution": "truncated_normal", "seed": null}}, "bias_initializer": {"class_name": "Zeros", "config": {}}, "kernel_regularizer": null, "bias_regularizer": null, "activity_regularizer": null, "kernel_constraint": null, "bias_constraint": null}, "name": "block2e_se_reduce", "inbound_nodes": [[["block2e_se_reshape", 0, 0, {}]]]}, {"class_name": "Conv2D", "config": {"name": "block2e_se_expand", "trainable": true, "dtype": "float32", "filters": 288, "kernel_size": [1, 1], "strides": [1, 1], "padding": "same", "data_format": "channels_last", "dilation_rate": [1, 1], "groups": 1, "activation": "sigmoid", "use_bias": true, "kernel_initializer": {"class_name": "VarianceScaling", "config": {"scale": 2.0, "mode": "fan_out", "distribution": "truncated_normal", "seed": null}}, "bias_initializer": {"class_name": "Zeros", "config": {}}, "kernel_regularizer": null, "bias_regularizer": null, "activity_regularizer": null, "kernel_constraint": null, "bias_constraint": null}, "name": "block2e_se_expand", "inbound_nodes": [[["block2e_se_reduce", 0, 0, {}]]]}, {"class_name": "Multiply", "config": {"name": "block2e_se_excite", "trainable": true, "dtype": "float32"}, "name": "block2e_se_excite", "inbound_nodes": [[["block2e_activation", 0, 0, {}], ["block2e_se_expand", 0, 0, {}]]]}, {"class_name": "Conv2D", "config": {"name": "block2e_project_conv", "trainable": true, "dtype": "float32", "filters": 48, "kernel_size": [1, 1], "strides": [1, 1], "padding": "same", "data_format": "channels_last", "dilation_rate": [1, 1], "groups": 1, "activation": "linear", "use_bias": false, "kernel_initializer": {"class_name": "VarianceScaling", "config": {"scale": 2.0, "mode": "fan_out", "distribution": "truncated_normal", "seed": null}}, "bias_initializer": {"class_name": "Zeros", "config": {}}, "kernel_regularizer": null, "bias_regularizer": null, "activity_regularizer": null, "kernel_constraint": null, "bias_constraint": null}, "name": "block2e_project_conv", "inbound_nodes": [[["block2e_se_excite", 0, 0, {}]]]}, {"class_name": "BatchNormalization", "config": {"name": "block2e_project_bn", "trainable": true, "dtype": "float32", "axis": [3], "momentum": 0.99, "epsilon": 0.001, "center": true, "scale": true, "beta_initializer": {"class_name": "Zeros", "config": {}}, "gamma_initializer": {"class_name": "Ones", "config": {}}, "moving_mean_initializer": {"class_name": "Zeros", "config": {}}, "moving_variance_initializer": {"class_name": "Ones", "config": {}}, "beta_regularizer": null, "gamma_regularizer": null, "beta_constraint": null, "gamma_constraint": null}, "name": "block2e_project_bn", "inbound_nodes": [[["block2e_project_conv", 0, 0, {}]]]}, {"class_name": "Dropout", "config": {"name": "block2e_drop", "trainable": true, "dtype": "float32", "rate": 0.02909090909090909, "noise_shape": [null, 1, 1, 1], "seed": null}, "name": "block2e_drop", "inbound_nodes": [[["block2e_project_bn", 0, 0, {}]]]}, {"class_name": "Add", "config": {"name": "block2e_add", "trainable": true, "dtype": "float32"}, "name": "block2e_add", "inbound_nodes": [[["block2e_drop", 0, 0, {}], ["block2d_add", 0, 0, {}]]]}, {"class_name": "Conv2D", "config": {"name": "block2f_expand_conv", "trainable": true, "dtype": "float32", "filters": 288, "kernel_size": [1, 1], "strides": [1, 1], "padding": "same", "data_format": "channels_last", "dilation_rate": [1, 1], "groups": 1, "activation": "linear", "use_bias": false, "kernel_initializer": {"class_name": "VarianceScaling", "config": {"scale": 2.0, "mode": "fan_out", "distribution": "truncated_normal", "seed": null}}, "bias_initializer": {"class_name": "Zeros", "config": {}}, "kernel_regularizer": null, "bias_regularizer": null, "activity_regularizer": null, "kernel_constraint": null, "bias_constraint": null}, "name": "block2f_expand_conv", "inbound_nodes": [[["block2e_add", 0, 0, {}]]]}, {"class_name": "BatchNormalization", "config": {"name": "block2f_expand_bn", "trainable": true, "dtype": "float32", "axis": [3], "momentum": 0.99, "epsilon": 0.001, "center": true, "scale": true, "beta_initializer": {"class_name": "Zeros", "config": {}}, "gamma_initializer": {"class_name": "Ones", "config": {}}, "moving_mean_initializer": {"class_name": "Zeros", "config": {}}, "moving_variance_initializer": {"class_name": "Ones", "config": {}}, "beta_regularizer": null, "gamma_regularizer": null, "beta_constraint": null, "gamma_constraint": null}, "name": "block2f_expand_bn", "inbound_nodes": [[["block2f_expand_conv", 0, 0, {}]]]}, {"class_name": "Activation", "config": {"name": "block2f_expand_activation", "trainable": true, "dtype": "float32", "activation": "swish"}, "name": "block2f_expand_activation", "inbound_nodes": [[["block2f_expand_bn", 0, 0, {}]]]}, {"class_name": "DepthwiseConv2D", "config": {"name": "block2f_dwconv", "trainable": true, "dtype": "float32", "kernel_size": [3, 3], "strides": [1, 1], "padding": "same", "data_format": "channels_last", "dilation_rate": [1, 1], "groups": 1, "activation": "linear", "use_bias": false, "bias_initializer": {"class_name": "Zeros", "config": {}}, "bias_regularizer": null, "activity_regularizer": null, "bias_constraint": null, "depth_multiplier": 1, "depthwise_initializer": {"class_name": "VarianceScaling", "config": {"scale": 2.0, "mode": "fan_out", "distribution": "truncated_normal", "seed": null}}, "depthwise_regularizer": null, "depthwise_constraint": null}, "name": "block2f_dwconv", "inbound_nodes": [[["block2f_expand_activation", 0, 0, {}]]]}, {"class_name": "BatchNormalization", "config": {"name": "block2f_bn", "trainable": true, "dtype": "float32", "axis": [3], "momentum": 0.99, "epsilon": 0.001, "center": true, "scale": true, "beta_initializer": {"class_name": "Zeros", "config": {}}, "gamma_initializer": {"class_name": "Ones", "config": {}}, "moving_mean_initializer": {"class_name": "Zeros", "config": {}}, "moving_variance_initializer": {"class_name": "Ones", "config": {}}, "beta_regularizer": null, "gamma_regularizer": null, "beta_constraint": null, "gamma_constraint": null}, "name": "block2f_bn", "inbound_nodes": [[["block2f_dwconv", 0, 0, {}]]]}, {"class_name": "Activation", "config": {"name": "block2f_activation", "trainable": true, "dtype": "float32", "activation": "swish"}, "name": "block2f_activation", "inbound_nodes": [[["block2f_bn", 0, 0, {}]]]}, {"class_name": "GlobalAveragePooling2D", "config": {"name": "block2f_se_squeeze", "trainable": true, "dtype": "float32", "data_format": "channels_last"}, "name": "block2f_se_squeeze", "inbound_nodes": [[["block2f_activation", 0, 0, {}]]]}, {"class_name": "Reshape", "config": {"name": "block2f_se_reshape", "trainable": true, "dtype": "float32", "target_shape": [1, 1, 288]}, "name": "block2f_se_reshape", "inbound_nodes": [[["block2f_se_squeeze", 0, 0, {}]]]}, {"class_name": "Conv2D", "config": {"name": "block2f_se_reduce", "trainable": true, "dtype": "float32", "filters": 12, "kernel_size": [1, 1], "strides": [1, 1], "padding": "same", "data_format": "channels_last", "dilation_rate": [1, 1], "groups": 1, "activation": "swish", "use_bias": true, "kernel_initializer": {"class_name": "VarianceScaling", "config": {"scale": 2.0, "mode": "fan_out", "distribution": "truncated_normal", "seed": null}}, "bias_initializer": {"class_name": "Zeros", "config": {}}, "kernel_regularizer": null, "bias_regularizer": null, "activity_regularizer": null, "kernel_constraint": null, "bias_constraint": null}, "name": "block2f_se_reduce", "inbound_nodes": [[["block2f_se_reshape", 0, 0, {}]]]}, {"class_name": "Conv2D", "config": {"name": "block2f_se_expand", "trainable": true, "dtype": "float32", "filters": 288, "kernel_size": [1, 1], "strides": [1, 1], "padding": "same", "data_format": "channels_last", "dilation_rate": [1, 1], "groups": 1, "activation": "sigmoid", "use_bias": true, "kernel_initializer": {"class_name": "VarianceScaling", "config": {"scale": 2.0, "mode": "fan_out", "distribution": "truncated_normal", "seed": null}}, "bias_initializer": {"class_name": "Zeros", "config": {}}, "kernel_regularizer": null, "bias_regularizer": null, "activity_regularizer": null, "kernel_constraint": null, "bias_constraint": null}, "name": "block2f_se_expand", "inbound_nodes": [[["block2f_se_reduce", 0, 0, {}]]]}, {"class_name": "Multiply", "config": {"name": "block2f_se_excite", "trainable": true, "dtype": "float32"}, "name": "block2f_se_excite", "inbound_nodes": [[["block2f_activation", 0, 0, {}], ["block2f_se_expand", 0, 0, {}]]]}, {"class_name": "Conv2D", "config": {"name": "block2f_project_conv", "trainable": true, "dtype": "float32", "filters": 48, "kernel_size": [1, 1], "strides": [1, 1], "padding": "same", "data_format": "channels_last", "dilation_rate": [1, 1], "groups": 1, "activation": "linear", "use_bias": false, "kernel_initializer": {"class_name": "VarianceScaling", "config": {"scale": 2.0, "mode": "fan_out", "distribution": "truncated_normal", "seed": null}}, "bias_initializer": {"class_name": "Zeros", "config": {}}, "kernel_regularizer": null, "bias_regularizer": null, "activity_regularizer": null, "kernel_constraint": null, "bias_constraint": null}, "name": "block2f_project_conv", "inbound_nodes": [[["block2f_se_excite", 0, 0, {}]]]}, {"class_name": "BatchNormalization", "config": {"name": "block2f_project_bn", "trainable": true, "dtype": "float32", "axis": [3], "momentum": 0.99, "epsilon": 0.001, "center": true, "scale": true, "beta_initializer": {"class_name": "Zeros", "config": {}}, "gamma_initializer": {"class_name": "Ones", "config": {}}, "moving_mean_initializer": {"class_name": "Zeros", "config": {}}, "moving_variance_initializer": {"class_name": "Ones", "config": {}}, "beta_regularizer": null, "gamma_regularizer": null, "beta_constraint": null, "gamma_constraint": null}, "name": "block2f_project_bn", "inbound_nodes": [[["block2f_project_conv", 0, 0, {}]]]}, {"class_name": "Dropout", "config": {"name": "block2f_drop", "trainable": true, "dtype": "float32", "rate": 0.03272727272727273, "noise_shape": [null, 1, 1, 1], "seed": null}, "name": "block2f_drop", "inbound_nodes": [[["block2f_project_bn", 0, 0, {}]]]}, {"class_name": "Add", "config": {"name": "block2f_add", "trainable": true, "dtype": "float32"}, "name": "block2f_add", "inbound_nodes": [[["block2f_drop", 0, 0, {}], ["block2e_add", 0, 0, {}]]]}, {"class_name": "Conv2D", "config": {"name": "block2g_expand_conv", "trainable": true, "dtype": "float32", "filters": 288, "kernel_size": [1, 1], "strides": [1, 1], "padding": "same", "data_format": "channels_last", "dilation_rate": [1, 1], "groups": 1, "activation": "linear", "use_bias": false, "kernel_initializer": {"class_name": "VarianceScaling", "config": {"scale": 2.0, "mode": "fan_out", "distribution": "truncated_normal", "seed": null}}, "bias_initializer": {"class_name": "Zeros", "config": {}}, "kernel_regularizer": null, "bias_regularizer": null, "activity_regularizer": null, "kernel_constraint": null, "bias_constraint": null}, "name": "block2g_expand_conv", "inbound_nodes": [[["block2f_add", 0, 0, {}]]]}, {"class_name": "BatchNormalization", "config": {"name": "block2g_expand_bn", "trainable": true, "dtype": "float32", "axis": [3], "momentum": 0.99, "epsilon": 0.001, "center": true, "scale": true, "beta_initializer": {"class_name": "Zeros", "config": {}}, "gamma_initializer": {"class_name": "Ones", "config": {}}, "moving_mean_initializer": {"class_name": "Zeros", "config": {}}, "moving_variance_initializer": {"class_name": "Ones", "config": {}}, "beta_regularizer": null, "gamma_regularizer": null, "beta_constraint": null, "gamma_constraint": null}, "name": "block2g_expand_bn", "inbound_nodes": [[["block2g_expand_conv", 0, 0, {}]]]}, {"class_name": "Activation", "config": {"name": "block2g_expand_activation", "trainable": true, "dtype": "float32", "activation": "swish"}, "name": "block2g_expand_activation", "inbound_nodes": [[["block2g_expand_bn", 0, 0, {}]]]}, {"class_name": "DepthwiseConv2D", "config": {"name": "block2g_dwconv", "trainable": true, "dtype": "float32", "kernel_size": [3, 3], "strides": [1, 1], "padding": "same", "data_format": "channels_last", "dilation_rate": [1, 1], "groups": 1, "activation": "linear", "use_bias": false, "bias_initializer": {"class_name": "Zeros", "config": {}}, "bias_regularizer": null, "activity_regularizer": null, "bias_constraint": null, "depth_multiplier": 1, "depthwise_initializer": {"class_name": "VarianceScaling", "config": {"scale": 2.0, "mode": "fan_out", "distribution": "truncated_normal", "seed": null}}, "depthwise_regularizer": null, "depthwise_constraint": null}, "name": "block2g_dwconv", "inbound_nodes": [[["block2g_expand_activation", 0, 0, {}]]]}, {"class_name": "BatchNormalization", "config": {"name": "block2g_bn", "trainable": true, "dtype": "float32", "axis": [3], "momentum": 0.99, "epsilon": 0.001, "center": true, "scale": true, "beta_initializer": {"class_name": "Zeros", "config": {}}, "gamma_initializer": {"class_name": "Ones", "config": {}}, "moving_mean_initializer": {"class_name": "Zeros", "config": {}}, "moving_variance_initializer": {"class_name": "Ones", "config": {}}, "beta_regularizer": null, "gamma_regularizer": null, "beta_constraint": null, "gamma_constraint": null}, "name": "block2g_bn", "inbound_nodes": [[["block2g_dwconv", 0, 0, {}]]]}, {"class_name": "Activation", "config": {"name": "block2g_activation", "trainable": true, "dtype": "float32", "activation": "swish"}, "name": "block2g_activation", "inbound_nodes": [[["block2g_bn", 0, 0, {}]]]}, {"class_name": "GlobalAveragePooling2D", "config": {"name": "block2g_se_squeeze", "trainable": true, "dtype": "float32", "data_format": "channels_last"}, "name": "block2g_se_squeeze", "inbound_nodes": [[["block2g_activation", 0, 0, {}]]]}, {"class_name": "Reshape", "config": {"name": "block2g_se_reshape", "trainable": true, "dtype": "float32", "target_shape": [1, 1, 288]}, "name": "block2g_se_reshape", "inbound_nodes": [[["block2g_se_squeeze", 0, 0, {}]]]}, {"class_name": "Conv2D", "config": {"name": "block2g_se_reduce", "trainable": true, "dtype": "float32", "filters": 12, "kernel_size": [1, 1], "strides": [1, 1], "padding": "same", "data_format": "channels_last", "dilation_rate": [1, 1], "groups": 1, "activation": "swish", "use_bias": true, "kernel_initializer": {"class_name": "VarianceScaling", "config": {"scale": 2.0, "mode": "fan_out", "distribution": "truncated_normal", "seed": null}}, "bias_initializer": {"class_name": "Zeros", "config": {}}, "kernel_regularizer": null, "bias_regularizer": null, "activity_regularizer": null, "kernel_constraint": null, "bias_constraint": null}, "name": "block2g_se_reduce", "inbound_nodes": [[["block2g_se_reshape", 0, 0, {}]]]}, {"class_name": "Conv2D", "config": {"name": "block2g_se_expand", "trainable": true, "dtype": "float32", "filters": 288, "kernel_size": [1, 1], "strides": [1, 1], "padding": "same", "data_format": "channels_last", "dilation_rate": [1, 1], "groups": 1, "activation": "sigmoid", "use_bias": true, "kernel_initializer": {"class_name": "VarianceScaling", "config": {"scale": 2.0, "mode": "fan_out", "distribution": "truncated_normal", "seed": null}}, "bias_initializer": {"class_name": "Zeros", "config": {}}, "kernel_regularizer": null, "bias_regularizer": null, "activity_regularizer": null, "kernel_constraint": null, "bias_constraint": null}, "name": "block2g_se_expand", "inbound_nodes": [[["block2g_se_reduce", 0, 0, {}]]]}, {"class_name": "Multiply", "config": {"name": "block2g_se_excite", "trainable": true, "dtype": "float32"}, "name": "block2g_se_excite", "inbound_nodes": [[["block2g_activation", 0, 0, {}], ["block2g_se_expand", 0, 0, {}]]]}, {"class_name": "Conv2D", "config": {"name": "block2g_project_conv", "trainable": true, "dtype": "float32", "filters": 48, "kernel_size": [1, 1], "strides": [1, 1], "padding": "same", "data_format": "channels_last", "dilation_rate": [1, 1], "groups": 1, "activation": "linear", "use_bias": false, "kernel_initializer": {"class_name": "VarianceScaling", "config": {"scale": 2.0, "mode": "fan_out", "distribution": "truncated_normal", "seed": null}}, "bias_initializer": {"class_name": "Zeros", "config": {}}, "kernel_regularizer": null, "bias_regularizer": null, "activity_regularizer": null, "kernel_constraint": null, "bias_constraint": null}, "name": "block2g_project_conv", "inbound_nodes": [[["block2g_se_excite", 0, 0, {}]]]}, {"class_name": "BatchNormalization", "config": {"name": "block2g_project_bn", "trainable": true, "dtype": "float32", "axis": [3], "momentum": 0.99, "epsilon": 0.001, "center": true, "scale": true, "beta_initializer": {"class_name": "Zeros", "config": {}}, "gamma_initializer": {"class_name": "Ones", "config": {}}, "moving_mean_initializer": {"class_name": "Zeros", "config": {}}, "moving_variance_initializer": {"class_name": "Ones", "config": {}}, "beta_regularizer": null, "gamma_regularizer": null, "beta_constraint": null, "gamma_constraint": null}, "name": "block2g_project_bn", "inbound_nodes": [[["block2g_project_conv", 0, 0, {}]]]}, {"class_name": "Dropout", "config": {"name": "block2g_drop", "trainable": true, "dtype": "float32", "rate": 0.03636363636363636, "noise_shape": [null, 1, 1, 1], "seed": null}, "name": "block2g_drop", "inbound_nodes": [[["block2g_project_bn", 0, 0, {}]]]}, {"class_name": "Add", "config": {"name": "block2g_add", "trainable": true, "dtype": "float32"}, "name": "block2g_add", "inbound_nodes": [[["block2g_drop", 0, 0, {}], ["block2f_add", 0, 0, {}]]]}, {"class_name": "Conv2D", "config": {"name": "block3a_expand_conv", "trainable": true, "dtype": "float32", "filters": 288, "kernel_size": [1, 1], "strides": [1, 1], "padding": "same", "data_format": "channels_last", "dilation_rate": [1, 1], "groups": 1, "activation": "linear", "use_bias": false, "kernel_initializer": {"class_name": "VarianceScaling", "config": {"scale": 2.0, "mode": "fan_out", "distribution": "truncated_normal", "seed": null}}, "bias_initializer": {"class_name": "Zeros", "config": {}}, "kernel_regularizer": null, "bias_regularizer": null, "activity_regularizer": null, "kernel_constraint": null, "bias_constraint": null}, "name": "block3a_expand_conv", "inbound_nodes": [[["block2g_add", 0, 0, {}]]]}, {"class_name": "BatchNormalization", "config": {"name": "block3a_expand_bn", "trainable": true, "dtype": "float32", "axis": [3], "momentum": 0.99, "epsilon": 0.001, "center": true, "scale": true, "beta_initializer": {"class_name": "Zeros", "config": {}}, "gamma_initializer": {"class_name": "Ones", "config": {}}, "moving_mean_initializer": {"class_name": "Zeros", "config": {}}, "moving_variance_initializer": {"class_name": "Ones", "config": {}}, "beta_regularizer": null, "gamma_regularizer": null, "beta_constraint": null, "gamma_constraint": null}, "name": "block3a_expand_bn", "inbound_nodes": [[["block3a_expand_conv", 0, 0, {}]]]}, {"class_name": "Activation", "config": {"name": "block3a_expand_activation", "trainable": true, "dtype": "float32", "activation": "swish"}, "name": "block3a_expand_activation", "inbound_nodes": [[["block3a_expand_bn", 0, 0, {}]]]}, {"class_name": "ZeroPadding2D", "config": {"name": "block3a_dwconv_pad", "trainable": true, "dtype": "float32", "padding": [[1, 2], [1, 2]], "data_format": "channels_last"}, "name": "block3a_dwconv_pad", "inbound_nodes": [[["block3a_expand_activation", 0, 0, {}]]]}, {"class_name": "DepthwiseConv2D", "config": {"name": "block3a_dwconv", "trainable": true, "dtype": "float32", "kernel_size": [5, 5], "strides": [2, 2], "padding": "valid", "data_format": "channels_last", "dilation_rate": [1, 1], "groups": 1, "activation": "linear", "use_bias": false, "bias_initializer": {"class_name": "Zeros", "config": {}}, "bias_regularizer": null, "activity_regularizer": null, "bias_constraint": null, "depth_multiplier": 1, "depthwise_initializer": {"class_name": "VarianceScaling", "config": {"scale": 2.0, "mode": "fan_out", "distribution": "truncated_normal", "seed": null}}, "depthwise_regularizer": null, "depthwise_constraint": null}, "name": "block3a_dwconv", "inbound_nodes": [[["block3a_dwconv_pad", 0, 0, {}]]]}, {"class_name": "BatchNormalization", "config": {"name": "block3a_bn", "trainable": true, "dtype": "float32", "axis": [3], "momentum": 0.99, "epsilon": 0.001, "center": true, "scale": true, "beta_initializer": {"class_name": "Zeros", "config": {}}, "gamma_initializer": {"class_name": "Ones", "config": {}}, "moving_mean_initializer": {"class_name": "Zeros", "config": {}}, "moving_variance_initializer": {"class_name": "Ones", "config": {}}, "beta_regularizer": null, "gamma_regularizer": null, "beta_constraint": null, "gamma_constraint": null}, "name": "block3a_bn", "inbound_nodes": [[["block3a_dwconv", 0, 0, {}]]]}, {"class_name": "Activation", "config": {"name": "block3a_activation", "trainable": true, "dtype": "float32", "activation": "swish"}, "name": "block3a_activation", "inbound_nodes": [[["block3a_bn", 0, 0, {}]]]}, {"class_name": "GlobalAveragePooling2D", "config": {"name": "block3a_se_squeeze", "trainable": true, "dtype": "float32", "data_format": "channels_last"}, "name": "block3a_se_squeeze", "inbound_nodes": [[["block3a_activation", 0, 0, {}]]]}, {"class_name": "Reshape", "config": {"name": "block3a_se_reshape", "trainable": true, "dtype": "float32", "target_shape": [1, 1, 288]}, "name": "block3a_se_reshape", "inbound_nodes": [[["block3a_se_squeeze", 0, 0, {}]]]}, {"class_name": "Conv2D", "config": {"name": "block3a_se_reduce", "trainable": true, "dtype": "float32", "filters": 12, "kernel_size": [1, 1], "strides": [1, 1], "padding": "same", "data_format": "channels_last", "dilation_rate": [1, 1], "groups": 1, "activation": "swish", "use_bias": true, "kernel_initializer": {"class_name": "VarianceScaling", "config": {"scale": 2.0, "mode": "fan_out", "distribution": "truncated_normal", "seed": null}}, "bias_initializer": {"class_name": "Zeros", "config": {}}, "kernel_regularizer": null, "bias_regularizer": null, "activity_regularizer": null, "kernel_constraint": null, "bias_constraint": null}, "name": "block3a_se_reduce", "inbound_nodes": [[["block3a_se_reshape", 0, 0, {}]]]}, {"class_name": "Conv2D", "config": {"name": "block3a_se_expand", "trainable": true, "dtype": "float32", "filters": 288, "kernel_size": [1, 1], "strides": [1, 1], "padding": "same", "data_format": "channels_last", "dilation_rate": [1, 1], "groups": 1, "activation": "sigmoid", "use_bias": true, "kernel_initializer": {"class_name": "VarianceScaling", "config": {"scale": 2.0, "mode": "fan_out", "distribution": "truncated_normal", "seed": null}}, "bias_initializer": {"class_name": "Zeros", "config": {}}, "kernel_regularizer": null, "bias_regularizer": null, "activity_regularizer": null, "kernel_constraint": null, "bias_constraint": null}, "name": "block3a_se_expand", "inbound_nodes": [[["block3a_se_reduce", 0, 0, {}]]]}, {"class_name": "Multiply", "config": {"name": "block3a_se_excite", "trainable": true, "dtype": "float32"}, "name": "block3a_se_excite", "inbound_nodes": [[["block3a_activation", 0, 0, {}], ["block3a_se_expand", 0, 0, {}]]]}, {"class_name": "Conv2D", "config": {"name": "block3a_project_conv", "trainable": true, "dtype": "float32", "filters": 80, "kernel_size": [1, 1], "strides": [1, 1], "padding": "same", "data_format": "channels_last", "dilation_rate": [1, 1], "groups": 1, "activation": "linear", "use_bias": false, "kernel_initializer": {"class_name": "VarianceScaling", "config": {"scale": 2.0, "mode": "fan_out", "distribution": "truncated_normal", "seed": null}}, "bias_initializer": {"class_name": "Zeros", "config": {}}, "kernel_regularizer": null, "bias_regularizer": null, "activity_regularizer": null, "kernel_constraint": null, "bias_constraint": null}, "name": "block3a_project_conv", "inbound_nodes": [[["block3a_se_excite", 0, 0, {}]]]}, {"class_name": "BatchNormalization", "config": {"name": "block3a_project_bn", "trainable": true, "dtype": "float32", "axis": [3], "momentum": 0.99, "epsilon": 0.001, "center": true, "scale": true, "beta_initializer": {"class_name": "Zeros", "config": {}}, "gamma_initializer": {"class_name": "Ones", "config": {}}, "moving_mean_initializer": {"class_name": "Zeros", "config": {}}, "moving_variance_initializer": {"class_name": "Ones", "config": {}}, "beta_regularizer": null, "gamma_regularizer": null, "beta_constraint": null, "gamma_constraint": null}, "name": "block3a_project_bn", "inbound_nodes": [[["block3a_project_conv", 0, 0, {}]]]}, {"class_name": "Conv2D", "config": {"name": "block3b_expand_conv", "trainable": true, "dtype": "float32", "filters": 480, "kernel_size": [1, 1], "strides": [1, 1], "padding": "same", "data_format": "channels_last", "dilation_rate": [1, 1], "groups": 1, "activation": "linear", "use_bias": false, "kernel_initializer": {"class_name": "VarianceScaling", "config": {"scale": 2.0, "mode": "fan_out", "distribution": "truncated_normal", "seed": null}}, "bias_initializer": {"class_name": "Zeros", "config": {}}, "kernel_regularizer": null, "bias_regularizer": null, "activity_regularizer": null, "kernel_constraint": null, "bias_constraint": null}, "name": "block3b_expand_conv", "inbound_nodes": [[["block3a_project_bn", 0, 0, {}]]]}, {"class_name": "BatchNormalization", "config": {"name": "block3b_expand_bn", "trainable": true, "dtype": "float32", "axis": [3], "momentum": 0.99, "epsilon": 0.001, "center": true, "scale": true, "beta_initializer": {"class_name": "Zeros", "config": {}}, "gamma_initializer": {"class_name": "Ones", "config": {}}, "moving_mean_initializer": {"class_name": "Zeros", "config": {}}, "moving_variance_initializer": {"class_name": "Ones", "config": {}}, "beta_regularizer": null, "gamma_regularizer": null, "beta_constraint": null, "gamma_constraint": null}, "name": "block3b_expand_bn", "inbound_nodes": [[["block3b_expand_conv", 0, 0, {}]]]}, {"class_name": "Activation", "config": {"name": "block3b_expand_activation", "trainable": true, "dtype": "float32", "activation": "swish"}, "name": "block3b_expand_activation", "inbound_nodes": [[["block3b_expand_bn", 0, 0, {}]]]}, {"class_name": "DepthwiseConv2D", "config": {"name": "block3b_dwconv", "trainable": true, "dtype": "float32", "kernel_size": [5, 5], "strides": [1, 1], "padding": "same", "data_format": "channels_last", "dilation_rate": [1, 1], "groups": 1, "activation": "linear", "use_bias": false, "bias_initializer": {"class_name": "Zeros", "config": {}}, "bias_regularizer": null, "activity_regularizer": null, "bias_constraint": null, "depth_multiplier": 1, "depthwise_initializer": {"class_name": "VarianceScaling", "config": {"scale": 2.0, "mode": "fan_out", "distribution": "truncated_normal", "seed": null}}, "depthwise_regularizer": null, "depthwise_constraint": null}, "name": "block3b_dwconv", "inbound_nodes": [[["block3b_expand_activation", 0, 0, {}]]]}, {"class_name": "BatchNormalization", "config": {"name": "block3b_bn", "trainable": true, "dtype": "float32", "axis": [3], "momentum": 0.99, "epsilon": 0.001, "center": true, "scale": true, "beta_initializer": {"class_name": "Zeros", "config": {}}, "gamma_initializer": {"class_name": "Ones", "config": {}}, "moving_mean_initializer": {"class_name": "Zeros", "config": {}}, "moving_variance_initializer": {"class_name": "Ones", "config": {}}, "beta_regularizer": null, "gamma_regularizer": null, "beta_constraint": null, "gamma_constraint": null}, "name": "block3b_bn", "inbound_nodes": [[["block3b_dwconv", 0, 0, {}]]]}, {"class_name": "Activation", "config": {"name": "block3b_activation", "trainable": true, "dtype": "float32", "activation": "swish"}, "name": "block3b_activation", "inbound_nodes": [[["block3b_bn", 0, 0, {}]]]}, {"class_name": "GlobalAveragePooling2D", "config": {"name": "block3b_se_squeeze", "trainable": true, "dtype": "float32", "data_format": "channels_last"}, "name": "block3b_se_squeeze", "inbound_nodes": [[["block3b_activation", 0, 0, {}]]]}, {"class_name": "Reshape", "config": {"name": "block3b_se_reshape", "trainable": true, "dtype": "float32", "target_shape": [1, 1, 480]}, "name": "block3b_se_reshape", "inbound_nodes": [[["block3b_se_squeeze", 0, 0, {}]]]}, {"class_name": "Conv2D", "config": {"name": "block3b_se_reduce", "trainable": true, "dtype": "float32", "filters": 20, "kernel_size": [1, 1], "strides": [1, 1], "padding": "same", "data_format": "channels_last", "dilation_rate": [1, 1], "groups": 1, "activation": "swish", "use_bias": true, "kernel_initializer": {"class_name": "VarianceScaling", "config": {"scale": 2.0, "mode": "fan_out", "distribution": "truncated_normal", "seed": null}}, "bias_initializer": {"class_name": "Zeros", "config": {}}, "kernel_regularizer": null, "bias_regularizer": null, "activity_regularizer": null, "kernel_constraint": null, "bias_constraint": null}, "name": "block3b_se_reduce", "inbound_nodes": [[["block3b_se_reshape", 0, 0, {}]]]}, {"class_name": "Conv2D", "config": {"name": "block3b_se_expand", "trainable": true, "dtype": "float32", "filters": 480, "kernel_size": [1, 1], "strides": [1, 1], "padding": "same", "data_format": "channels_last", "dilation_rate": [1, 1], "groups": 1, "activation": "sigmoid", "use_bias": true, "kernel_initializer": {"class_name": "VarianceScaling", "config": {"scale": 2.0, "mode": "fan_out", "distribution": "truncated_normal", "seed": null}}, "bias_initializer": {"class_name": "Zeros", "config": {}}, "kernel_regularizer": null, "bias_regularizer": null, "activity_regularizer": null, "kernel_constraint": null, "bias_constraint": null}, "name": "block3b_se_expand", "inbound_nodes": [[["block3b_se_reduce", 0, 0, {}]]]}, {"class_name": "Multiply", "config": {"name": "block3b_se_excite", "trainable": true, "dtype": "float32"}, "name": "block3b_se_excite", "inbound_nodes": [[["block3b_activation", 0, 0, {}], ["block3b_se_expand", 0, 0, {}]]]}, {"class_name": "Conv2D", "config": {"name": "block3b_project_conv", "trainable": true, "dtype": "float32", "filters": 80, "kernel_size": [1, 1], "strides": [1, 1], "padding": "same", "data_format": "channels_last", "dilation_rate": [1, 1], "groups": 1, "activation": "linear", "use_bias": false, "kernel_initializer": {"class_name": "VarianceScaling", "config": {"scale": 2.0, "mode": "fan_out", "distribution": "truncated_normal", "seed": null}}, "bias_initializer": {"class_name": "Zeros", "config": {}}, "kernel_regularizer": null, "bias_regularizer": null, "activity_regularizer": null, "kernel_constraint": null, "bias_constraint": null}, "name": "block3b_project_conv", "inbound_nodes": [[["block3b_se_excite", 0, 0, {}]]]}, {"class_name": "BatchNormalization", "config": {"name": "block3b_project_bn", "trainable": true, "dtype": "float32", "axis": [3], "momentum": 0.99, "epsilon": 0.001, "center": true, "scale": true, "beta_initializer": {"class_name": "Zeros", "config": {}}, "gamma_initializer": {"class_name": "Ones", "config": {}}, "moving_mean_initializer": {"class_name": "Zeros", "config": {}}, "moving_variance_initializer": {"class_name": "Ones", "config": {}}, "beta_regularizer": null, "gamma_regularizer": null, "beta_constraint": null, "gamma_constraint": null}, "name": "block3b_project_bn", "inbound_nodes": [[["block3b_project_conv", 0, 0, {}]]]}, {"class_name": "Dropout", "config": {"name": "block3b_drop", "trainable": true, "dtype": "float32", "rate": 0.04363636363636364, "noise_shape": [null, 1, 1, 1], "seed": null}, "name": "block3b_drop", "inbound_nodes": [[["block3b_project_bn", 0, 0, {}]]]}, {"class_name": "Add", "config": {"name": "block3b_add", "trainable": true, "dtype": "float32"}, "name": "block3b_add", "inbound_nodes": [[["block3b_drop", 0, 0, {}], ["block3a_project_bn", 0, 0, {}]]]}, {"class_name": "Conv2D", "config": {"name": "block3c_expand_conv", "trainable": true, "dtype": "float32", "filters": 480, "kernel_size": [1, 1], "strides": [1, 1], "padding": "same", "data_format": "channels_last", "dilation_rate": [1, 1], "groups": 1, "activation": "linear", "use_bias": false, "kernel_initializer": {"class_name": "VarianceScaling", "config": {"scale": 2.0, "mode": "fan_out", "distribution": "truncated_normal", "seed": null}}, "bias_initializer": {"class_name": "Zeros", "config": {}}, "kernel_regularizer": null, "bias_regularizer": null, "activity_regularizer": null, "kernel_constraint": null, "bias_constraint": null}, "name": "block3c_expand_conv", "inbound_nodes": [[["block3b_add", 0, 0, {}]]]}, {"class_name": "BatchNormalization", "config": {"name": "block3c_expand_bn", "trainable": true, "dtype": "float32", "axis": [3], "momentum": 0.99, "epsilon": 0.001, "center": true, "scale": true, "beta_initializer": {"class_name": "Zeros", "config": {}}, "gamma_initializer": {"class_name": "Ones", "config": {}}, "moving_mean_initializer": {"class_name": "Zeros", "config": {}}, "moving_variance_initializer": {"class_name": "Ones", "config": {}}, "beta_regularizer": null, "gamma_regularizer": null, "beta_constraint": null, "gamma_constraint": null}, "name": "block3c_expand_bn", "inbound_nodes": [[["block3c_expand_conv", 0, 0, {}]]]}, {"class_name": "Activation", "config": {"name": "block3c_expand_activation", "trainable": true, "dtype": "float32", "activation": "swish"}, "name": "block3c_expand_activation", "inbound_nodes": [[["block3c_expand_bn", 0, 0, {}]]]}, {"class_name": "DepthwiseConv2D", "config": {"name": "block3c_dwconv", "trainable": true, "dtype": "float32", "kernel_size": [5, 5], "strides": [1, 1], "padding": "same", "data_format": "channels_last", "dilation_rate": [1, 1], "groups": 1, "activation": "linear", "use_bias": false, "bias_initializer": {"class_name": "Zeros", "config": {}}, "bias_regularizer": null, "activity_regularizer": null, "bias_constraint": null, "depth_multiplier": 1, "depthwise_initializer": {"class_name": "VarianceScaling", "config": {"scale": 2.0, "mode": "fan_out", "distribution": "truncated_normal", "seed": null}}, "depthwise_regularizer": null, "depthwise_constraint": null}, "name": "block3c_dwconv", "inbound_nodes": [[["block3c_expand_activation", 0, 0, {}]]]}, {"class_name": "BatchNormalization", "config": {"name": "block3c_bn", "trainable": true, "dtype": "float32", "axis": [3], "momentum": 0.99, "epsilon": 0.001, "center": true, "scale": true, "beta_initializer": {"class_name": "Zeros", "config": {}}, "gamma_initializer": {"class_name": "Ones", "config": {}}, "moving_mean_initializer": {"class_name": "Zeros", "config": {}}, "moving_variance_initializer": {"class_name": "Ones", "config": {}}, "beta_regularizer": null, "gamma_regularizer": null, "beta_constraint": null, "gamma_constraint": null}, "name": "block3c_bn", "inbound_nodes": [[["block3c_dwconv", 0, 0, {}]]]}, {"class_name": "Activation", "config": {"name": "block3c_activation", "trainable": true, "dtype": "float32", "activation": "swish"}, "name": "block3c_activation", "inbound_nodes": [[["block3c_bn", 0, 0, {}]]]}, {"class_name": "GlobalAveragePooling2D", "config": {"name": "block3c_se_squeeze", "trainable": true, "dtype": "float32", "data_format": "channels_last"}, "name": "block3c_se_squeeze", "inbound_nodes": [[["block3c_activation", 0, 0, {}]]]}, {"class_name": "Reshape", "config": {"name": "block3c_se_reshape", "trainable": true, "dtype": "float32", "target_shape": [1, 1, 480]}, "name": "block3c_se_reshape", "inbound_nodes": [[["block3c_se_squeeze", 0, 0, {}]]]}, {"class_name": "Conv2D", "config": {"name": "block3c_se_reduce", "trainable": true, "dtype": "float32", "filters": 20, "kernel_size": [1, 1], "strides": [1, 1], "padding": "same", "data_format": "channels_last", "dilation_rate": [1, 1], "groups": 1, "activation": "swish", "use_bias": true, "kernel_initializer": {"class_name": "VarianceScaling", "config": {"scale": 2.0, "mode": "fan_out", "distribution": "truncated_normal", "seed": null}}, "bias_initializer": {"class_name": "Zeros", "config": {}}, "kernel_regularizer": null, "bias_regularizer": null, "activity_regularizer": null, "kernel_constraint": null, "bias_constraint": null}, "name": "block3c_se_reduce", "inbound_nodes": [[["block3c_se_reshape", 0, 0, {}]]]}, {"class_name": "Conv2D", "config": {"name": "block3c_se_expand", "trainable": true, "dtype": "float32", "filters": 480, "kernel_size": [1, 1], "strides": [1, 1], "padding": "same", "data_format": "channels_last", "dilation_rate": [1, 1], "groups": 1, "activation": "sigmoid", "use_bias": true, "kernel_initializer": {"class_name": "VarianceScaling", "config": {"scale": 2.0, "mode": "fan_out", "distribution": "truncated_normal", "seed": null}}, "bias_initializer": {"class_name": "Zeros", "config": {}}, "kernel_regularizer": null, "bias_regularizer": null, "activity_regularizer": null, "kernel_constraint": null, "bias_constraint": null}, "name": "block3c_se_expand", "inbound_nodes": [[["block3c_se_reduce", 0, 0, {}]]]}, {"class_name": "Multiply", "config": {"name": "block3c_se_excite", "trainable": true, "dtype": "float32"}, "name": "block3c_se_excite", "inbound_nodes": [[["block3c_activation", 0, 0, {}], ["block3c_se_expand", 0, 0, {}]]]}, {"class_name": "Conv2D", "config": {"name": "block3c_project_conv", "trainable": true, "dtype": "float32", "filters": 80, "kernel_size": [1, 1], "strides": [1, 1], "padding": "same", "data_format": "channels_last", "dilation_rate": [1, 1], "groups": 1, "activation": "linear", "use_bias": false, "kernel_initializer": {"class_name": "VarianceScaling", "config": {"scale": 2.0, "mode": "fan_out", "distribution": "truncated_normal", "seed": null}}, "bias_initializer": {"class_name": "Zeros", "config": {}}, "kernel_regularizer": null, "bias_regularizer": null, "activity_regularizer": null, "kernel_constraint": null, "bias_constraint": null}, "name": "block3c_project_conv", "inbound_nodes": [[["block3c_se_excite", 0, 0, {}]]]}, {"class_name": "BatchNormalization", "config": {"name": "block3c_project_bn", "trainable": true, "dtype": "float32", "axis": [3], "momentum": 0.99, "epsilon": 0.001, "center": true, "scale": true, "beta_initializer": {"class_name": "Zeros", "config": {}}, "gamma_initializer": {"class_name": "Ones", "config": {}}, "moving_mean_initializer": {"class_name": "Zeros", "config": {}}, "moving_variance_initializer": {"class_name": "Ones", "config": {}}, "beta_regularizer": null, "gamma_regularizer": null, "beta_constraint": null, "gamma_constraint": null}, "name": "block3c_project_bn", "inbound_nodes": [[["block3c_project_conv", 0, 0, {}]]]}, {"class_name": "Dropout", "config": {"name": "block3c_drop", "trainable": true, "dtype": "float32", "rate": 0.04727272727272727, "noise_shape": [null, 1, 1, 1], "seed": null}, "name": "block3c_drop", "inbound_nodes": [[["block3c_project_bn", 0, 0, {}]]]}, {"class_name": "Add", "config": {"name": "block3c_add", "trainable": true, "dtype": "float32"}, "name": "block3c_add", "inbound_nodes": [[["block3c_drop", 0, 0, {}], ["block3b_add", 0, 0, {}]]]}, {"class_name": "Conv2D", "config": {"name": "block3d_expand_conv", "trainable": true, "dtype": "float32", "filters": 480, "kernel_size": [1, 1], "strides": [1, 1], "padding": "same", "data_format": "channels_last", "dilation_rate": [1, 1], "groups": 1, "activation": "linear", "use_bias": false, "kernel_initializer": {"class_name": "VarianceScaling", "config": {"scale": 2.0, "mode": "fan_out", "distribution": "truncated_normal", "seed": null}}, "bias_initializer": {"class_name": "Zeros", "config": {}}, "kernel_regularizer": null, "bias_regularizer": null, "activity_regularizer": null, "kernel_constraint": null, "bias_constraint": null}, "name": "block3d_expand_conv", "inbound_nodes": [[["block3c_add", 0, 0, {}]]]}, {"class_name": "BatchNormalization", "config": {"name": "block3d_expand_bn", "trainable": true, "dtype": "float32", "axis": [3], "momentum": 0.99, "epsilon": 0.001, "center": true, "scale": true, "beta_initializer": {"class_name": "Zeros", "config": {}}, "gamma_initializer": {"class_name": "Ones", "config": {}}, "moving_mean_initializer": {"class_name": "Zeros", "config": {}}, "moving_variance_initializer": {"class_name": "Ones", "config": {}}, "beta_regularizer": null, "gamma_regularizer": null, "beta_constraint": null, "gamma_constraint": null}, "name": "block3d_expand_bn", "inbound_nodes": [[["block3d_expand_conv", 0, 0, {}]]]}, {"class_name": "Activation", "config": {"name": "block3d_expand_activation", "trainable": true, "dtype": "float32", "activation": "swish"}, "name": "block3d_expand_activation", "inbound_nodes": [[["block3d_expand_bn", 0, 0, {}]]]}, {"class_name": "DepthwiseConv2D", "config": {"name": "block3d_dwconv", "trainable": true, "dtype": "float32", "kernel_size": [5, 5], "strides": [1, 1], "padding": "same", "data_format": "channels_last", "dilation_rate": [1, 1], "groups": 1, "activation": "linear", "use_bias": false, "bias_initializer": {"class_name": "Zeros", "config": {}}, "bias_regularizer": null, "activity_regularizer": null, "bias_constraint": null, "depth_multiplier": 1, "depthwise_initializer": {"class_name": "VarianceScaling", "config": {"scale": 2.0, "mode": "fan_out", "distribution": "truncated_normal", "seed": null}}, "depthwise_regularizer": null, "depthwise_constraint": null}, "name": "block3d_dwconv", "inbound_nodes": [[["block3d_expand_activation", 0, 0, {}]]]}, {"class_name": "BatchNormalization", "config": {"name": "block3d_bn", "trainable": true, "dtype": "float32", "axis": [3], "momentum": 0.99, "epsilon": 0.001, "center": true, "scale": true, "beta_initializer": {"class_name": "Zeros", "config": {}}, "gamma_initializer": {"class_name": "Ones", "config": {}}, "moving_mean_initializer": {"class_name": "Zeros", "config": {}}, "moving_variance_initializer": {"class_name": "Ones", "config": {}}, "beta_regularizer": null, "gamma_regularizer": null, "beta_constraint": null, "gamma_constraint": null}, "name": "block3d_bn", "inbound_nodes": [[["block3d_dwconv", 0, 0, {}]]]}, {"class_name": "Activation", "config": {"name": "block3d_activation", "trainable": true, "dtype": "float32", "activation": "swish"}, "name": "block3d_activation", "inbound_nodes": [[["block3d_bn", 0, 0, {}]]]}, {"class_name": "GlobalAveragePooling2D", "config": {"name": "block3d_se_squeeze", "trainable": true, "dtype": "float32", "data_format": "channels_last"}, "name": "block3d_se_squeeze", "inbound_nodes": [[["block3d_activation", 0, 0, {}]]]}, {"class_name": "Reshape", "config": {"name": "block3d_se_reshape", "trainable": true, "dtype": "float32", "target_shape": [1, 1, 480]}, "name": "block3d_se_reshape", "inbound_nodes": [[["block3d_se_squeeze", 0, 0, {}]]]}, {"class_name": "Conv2D", "config": {"name": "block3d_se_reduce", "trainable": true, "dtype": "float32", "filters": 20, "kernel_size": [1, 1], "strides": [1, 1], "padding": "same", "data_format": "channels_last", "dilation_rate": [1, 1], "groups": 1, "activation": "swish", "use_bias": true, "kernel_initializer": {"class_name": "VarianceScaling", "config": {"scale": 2.0, "mode": "fan_out", "distribution": "truncated_normal", "seed": null}}, "bias_initializer": {"class_name": "Zeros", "config": {}}, "kernel_regularizer": null, "bias_regularizer": null, "activity_regularizer": null, "kernel_constraint": null, "bias_constraint": null}, "name": "block3d_se_reduce", "inbound_nodes": [[["block3d_se_reshape", 0, 0, {}]]]}, {"class_name": "Conv2D", "config": {"name": "block3d_se_expand", "trainable": true, "dtype": "float32", "filters": 480, "kernel_size": [1, 1], "strides": [1, 1], "padding": "same", "data_format": "channels_last", "dilation_rate": [1, 1], "groups": 1, "activation": "sigmoid", "use_bias": true, "kernel_initializer": {"class_name": "VarianceScaling", "config": {"scale": 2.0, "mode": "fan_out", "distribution": "truncated_normal", "seed": null}}, "bias_initializer": {"class_name": "Zeros", "config": {}}, "kernel_regularizer": null, "bias_regularizer": null, "activity_regularizer": null, "kernel_constraint": null, "bias_constraint": null}, "name": "block3d_se_expand", "inbound_nodes": [[["block3d_se_reduce", 0, 0, {}]]]}, {"class_name": "Multiply", "config": {"name": "block3d_se_excite", "trainable": true, "dtype": "float32"}, "name": "block3d_se_excite", "inbound_nodes": [[["block3d_activation", 0, 0, {}], ["block3d_se_expand", 0, 0, {}]]]}, {"class_name": "Conv2D", "config": {"name": "block3d_project_conv", "trainable": true, "dtype": "float32", "filters": 80, "kernel_size": [1, 1], "strides": [1, 1], "padding": "same", "data_format": "channels_last", "dilation_rate": [1, 1], "groups": 1, "activation": "linear", "use_bias": false, "kernel_initializer": {"class_name": "VarianceScaling", "config": {"scale": 2.0, "mode": "fan_out", "distribution": "truncated_normal", "seed": null}}, "bias_initializer": {"class_name": "Zeros", "config": {}}, "kernel_regularizer": null, "bias_regularizer": null, "activity_regularizer": null, "kernel_constraint": null, "bias_constraint": null}, "name": "block3d_project_conv", "inbound_nodes": [[["block3d_se_excite", 0, 0, {}]]]}, {"class_name": "BatchNormalization", "config": {"name": "block3d_project_bn", "trainable": true, "dtype": "float32", "axis": [3], "momentum": 0.99, "epsilon": 0.001, "center": true, "scale": true, "beta_initializer": {"class_name": "Zeros", "config": {}}, "gamma_initializer": {"class_name": "Ones", "config": {}}, "moving_mean_initializer": {"class_name": "Zeros", "config": {}}, "moving_variance_initializer": {"class_name": "Ones", "config": {}}, "beta_regularizer": null, "gamma_regularizer": null, "beta_constraint": null, "gamma_constraint": null}, "name": "block3d_project_bn", "inbound_nodes": [[["block3d_project_conv", 0, 0, {}]]]}, {"class_name": "Dropout", "config": {"name": "block3d_drop", "trainable": true, "dtype": "float32", "rate": 0.05090909090909091, "noise_shape": [null, 1, 1, 1], "seed": null}, "name": "block3d_drop", "inbound_nodes": [[["block3d_project_bn", 0, 0, {}]]]}, {"class_name": "Add", "config": {"name": "block3d_add", "trainable": true, "dtype": "float32"}, "name": "block3d_add", "inbound_nodes": [[["block3d_drop", 0, 0, {}], ["block3c_add", 0, 0, {}]]]}, {"class_name": "Conv2D", "config": {"name": "block3e_expand_conv", "trainable": true, "dtype": "float32", "filters": 480, "kernel_size": [1, 1], "strides": [1, 1], "padding": "same", "data_format": "channels_last", "dilation_rate": [1, 1], "groups": 1, "activation": "linear", "use_bias": false, "kernel_initializer": {"class_name": "VarianceScaling", "config": {"scale": 2.0, "mode": "fan_out", "distribution": "truncated_normal", "seed": null}}, "bias_initializer": {"class_name": "Zeros", "config": {}}, "kernel_regularizer": null, "bias_regularizer": null, "activity_regularizer": null, "kernel_constraint": null, "bias_constraint": null}, "name": "block3e_expand_conv", "inbound_nodes": [[["block3d_add", 0, 0, {}]]]}, {"class_name": "BatchNormalization", "config": {"name": "block3e_expand_bn", "trainable": true, "dtype": "float32", "axis": [3], "momentum": 0.99, "epsilon": 0.001, "center": true, "scale": true, "beta_initializer": {"class_name": "Zeros", "config": {}}, "gamma_initializer": {"class_name": "Ones", "config": {}}, "moving_mean_initializer": {"class_name": "Zeros", "config": {}}, "moving_variance_initializer": {"class_name": "Ones", "config": {}}, "beta_regularizer": null, "gamma_regularizer": null, "beta_constraint": null, "gamma_constraint": null}, "name": "block3e_expand_bn", "inbound_nodes": [[["block3e_expand_conv", 0, 0, {}]]]}, {"class_name": "Activation", "config": {"name": "block3e_expand_activation", "trainable": true, "dtype": "float32", "activation": "swish"}, "name": "block3e_expand_activation", "inbound_nodes": [[["block3e_expand_bn", 0, 0, {}]]]}, {"class_name": "DepthwiseConv2D", "config": {"name": "block3e_dwconv", "trainable": true, "dtype": "float32", "kernel_size": [5, 5], "strides": [1, 1], "padding": "same", "data_format": "channels_last", "dilation_rate": [1, 1], "groups": 1, "activation": "linear", "use_bias": false, "bias_initializer": {"class_name": "Zeros", "config": {}}, "bias_regularizer": null, "activity_regularizer": null, "bias_constraint": null, "depth_multiplier": 1, "depthwise_initializer": {"class_name": "VarianceScaling", "config": {"scale": 2.0, "mode": "fan_out", "distribution": "truncated_normal", "seed": null}}, "depthwise_regularizer": null, "depthwise_constraint": null}, "name": "block3e_dwconv", "inbound_nodes": [[["block3e_expand_activation", 0, 0, {}]]]}, {"class_name": "BatchNormalization", "config": {"name": "block3e_bn", "trainable": true, "dtype": "float32", "axis": [3], "momentum": 0.99, "epsilon": 0.001, "center": true, "scale": true, "beta_initializer": {"class_name": "Zeros", "config": {}}, "gamma_initializer": {"class_name": "Ones", "config": {}}, "moving_mean_initializer": {"class_name": "Zeros", "config": {}}, "moving_variance_initializer": {"class_name": "Ones", "config": {}}, "beta_regularizer": null, "gamma_regularizer": null, "beta_constraint": null, "gamma_constraint": null}, "name": "block3e_bn", "inbound_nodes": [[["block3e_dwconv", 0, 0, {}]]]}, {"class_name": "Activation", "config": {"name": "block3e_activation", "trainable": true, "dtype": "float32", "activation": "swish"}, "name": "block3e_activation", "inbound_nodes": [[["block3e_bn", 0, 0, {}]]]}, {"class_name": "GlobalAveragePooling2D", "config": {"name": "block3e_se_squeeze", "trainable": true, "dtype": "float32", "data_format": "channels_last"}, "name": "block3e_se_squeeze", "inbound_nodes": [[["block3e_activation", 0, 0, {}]]]}, {"class_name": "Reshape", "config": {"name": "block3e_se_reshape", "trainable": true, "dtype": "float32", "target_shape": [1, 1, 480]}, "name": "block3e_se_reshape", "inbound_nodes": [[["block3e_se_squeeze", 0, 0, {}]]]}, {"class_name": "Conv2D", "config": {"name": "block3e_se_reduce", "trainable": true, "dtype": "float32", "filters": 20, "kernel_size": [1, 1], "strides": [1, 1], "padding": "same", "data_format": "channels_last", "dilation_rate": [1, 1], "groups": 1, "activation": "swish", "use_bias": true, "kernel_initializer": {"class_name": "VarianceScaling", "config": {"scale": 2.0, "mode": "fan_out", "distribution": "truncated_normal", "seed": null}}, "bias_initializer": {"class_name": "Zeros", "config": {}}, "kernel_regularizer": null, "bias_regularizer": null, "activity_regularizer": null, "kernel_constraint": null, "bias_constraint": null}, "name": "block3e_se_reduce", "inbound_nodes": [[["block3e_se_reshape", 0, 0, {}]]]}, {"class_name": "Conv2D", "config": {"name": "block3e_se_expand", "trainable": true, "dtype": "float32", "filters": 480, "kernel_size": [1, 1], "strides": [1, 1], "padding": "same", "data_format": "channels_last", "dilation_rate": [1, 1], "groups": 1, "activation": "sigmoid", "use_bias": true, "kernel_initializer": {"class_name": "VarianceScaling", "config": {"scale": 2.0, "mode": "fan_out", "distribution": "truncated_normal", "seed": null}}, "bias_initializer": {"class_name": "Zeros", "config": {}}, "kernel_regularizer": null, "bias_regularizer": null, "activity_regularizer": null, "kernel_constraint": null, "bias_constraint": null}, "name": "block3e_se_expand", "inbound_nodes": [[["block3e_se_reduce", 0, 0, {}]]]}, {"class_name": "Multiply", "config": {"name": "block3e_se_excite", "trainable": true, "dtype": "float32"}, "name": "block3e_se_excite", "inbound_nodes": [[["block3e_activation", 0, 0, {}], ["block3e_se_expand", 0, 0, {}]]]}, {"class_name": "Conv2D", "config": {"name": "block3e_project_conv", "trainable": true, "dtype": "float32", "filters": 80, "kernel_size": [1, 1], "strides": [1, 1], "padding": "same", "data_format": "channels_last", "dilation_rate": [1, 1], "groups": 1, "activation": "linear", "use_bias": false, "kernel_initializer": {"class_name": "VarianceScaling", "config": {"scale": 2.0, "mode": "fan_out", "distribution": "truncated_normal", "seed": null}}, "bias_initializer": {"class_name": "Zeros", "config": {}}, "kernel_regularizer": null, "bias_regularizer": null, "activity_regularizer": null, "kernel_constraint": null, "bias_constraint": null}, "name": "block3e_project_conv", "inbound_nodes": [[["block3e_se_excite", 0, 0, {}]]]}, {"class_name": "BatchNormalization", "config": {"name": "block3e_project_bn", "trainable": true, "dtype": "float32", "axis": [3], "momentum": 0.99, "epsilon": 0.001, "center": true, "scale": true, "beta_initializer": {"class_name": "Zeros", "config": {}}, "gamma_initializer": {"class_name": "Ones", "config": {}}, "moving_mean_initializer": {"class_name": "Zeros", "config": {}}, "moving_variance_initializer": {"class_name": "Ones", "config": {}}, "beta_regularizer": null, "gamma_regularizer": null, "beta_constraint": null, "gamma_constraint": null}, "name": "block3e_project_bn", "inbound_nodes": [[["block3e_project_conv", 0, 0, {}]]]}, {"class_name": "Dropout", "config": {"name": "block3e_drop", "trainable": true, "dtype": "float32", "rate": 0.05454545454545454, "noise_shape": [null, 1, 1, 1], "seed": null}, "name": "block3e_drop", "inbound_nodes": [[["block3e_project_bn", 0, 0, {}]]]}, {"class_name": "Add", "config": {"name": "block3e_add", "trainable": true, "dtype": "float32"}, "name": "block3e_add", "inbound_nodes": [[["block3e_drop", 0, 0, {}], ["block3d_add", 0, 0, {}]]]}, {"class_name": "Conv2D", "config": {"name": "block3f_expand_conv", "trainable": true, "dtype": "float32", "filters": 480, "kernel_size": [1, 1], "strides": [1, 1], "padding": "same", "data_format": "channels_last", "dilation_rate": [1, 1], "groups": 1, "activation": "linear", "use_bias": false, "kernel_initializer": {"class_name": "VarianceScaling", "config": {"scale": 2.0, "mode": "fan_out", "distribution": "truncated_normal", "seed": null}}, "bias_initializer": {"class_name": "Zeros", "config": {}}, "kernel_regularizer": null, "bias_regularizer": null, "activity_regularizer": null, "kernel_constraint": null, "bias_constraint": null}, "name": "block3f_expand_conv", "inbound_nodes": [[["block3e_add", 0, 0, {}]]]}, {"class_name": "BatchNormalization", "config": {"name": "block3f_expand_bn", "trainable": true, "dtype": "float32", "axis": [3], "momentum": 0.99, "epsilon": 0.001, "center": true, "scale": true, "beta_initializer": {"class_name": "Zeros", "config": {}}, "gamma_initializer": {"class_name": "Ones", "config": {}}, "moving_mean_initializer": {"class_name": "Zeros", "config": {}}, "moving_variance_initializer": {"class_name": "Ones", "config": {}}, "beta_regularizer": null, "gamma_regularizer": null, "beta_constraint": null, "gamma_constraint": null}, "name": "block3f_expand_bn", "inbound_nodes": [[["block3f_expand_conv", 0, 0, {}]]]}, {"class_name": "Activation", "config": {"name": "block3f_expand_activation", "trainable": true, "dtype": "float32", "activation": "swish"}, "name": "block3f_expand_activation", "inbound_nodes": [[["block3f_expand_bn", 0, 0, {}]]]}, {"class_name": "DepthwiseConv2D", "config": {"name": "block3f_dwconv", "trainable": true, "dtype": "float32", "kernel_size": [5, 5], "strides": [1, 1], "padding": "same", "data_format": "channels_last", "dilation_rate": [1, 1], "groups": 1, "activation": "linear", "use_bias": false, "bias_initializer": {"class_name": "Zeros", "config": {}}, "bias_regularizer": null, "activity_regularizer": null, "bias_constraint": null, "depth_multiplier": 1, "depthwise_initializer": {"class_name": "VarianceScaling", "config": {"scale": 2.0, "mode": "fan_out", "distribution": "truncated_normal", "seed": null}}, "depthwise_regularizer": null, "depthwise_constraint": null}, "name": "block3f_dwconv", "inbound_nodes": [[["block3f_expand_activation", 0, 0, {}]]]}, {"class_name": "BatchNormalization", "config": {"name": "block3f_bn", "trainable": true, "dtype": "float32", "axis": [3], "momentum": 0.99, "epsilon": 0.001, "center": true, "scale": true, "beta_initializer": {"class_name": "Zeros", "config": {}}, "gamma_initializer": {"class_name": "Ones", "config": {}}, "moving_mean_initializer": {"class_name": "Zeros", "config": {}}, "moving_variance_initializer": {"class_name": "Ones", "config": {}}, "beta_regularizer": null, "gamma_regularizer": null, "beta_constraint": null, "gamma_constraint": null}, "name": "block3f_bn", "inbound_nodes": [[["block3f_dwconv", 0, 0, {}]]]}, {"class_name": "Activation", "config": {"name": "block3f_activation", "trainable": true, "dtype": "float32", "activation": "swish"}, "name": "block3f_activation", "inbound_nodes": [[["block3f_bn", 0, 0, {}]]]}, {"class_name": "GlobalAveragePooling2D", "config": {"name": "block3f_se_squeeze", "trainable": true, "dtype": "float32", "data_format": "channels_last"}, "name": "block3f_se_squeeze", "inbound_nodes": [[["block3f_activation", 0, 0, {}]]]}, {"class_name": "Reshape", "config": {"name": "block3f_se_reshape", "trainable": true, "dtype": "float32", "target_shape": [1, 1, 480]}, "name": "block3f_se_reshape", "inbound_nodes": [[["block3f_se_squeeze", 0, 0, {}]]]}, {"class_name": "Conv2D", "config": {"name": "block3f_se_reduce", "trainable": true, "dtype": "float32", "filters": 20, "kernel_size": [1, 1], "strides": [1, 1], "padding": "same", "data_format": "channels_last", "dilation_rate": [1, 1], "groups": 1, "activation": "swish", "use_bias": true, "kernel_initializer": {"class_name": "VarianceScaling", "config": {"scale": 2.0, "mode": "fan_out", "distribution": "truncated_normal", "seed": null}}, "bias_initializer": {"class_name": "Zeros", "config": {}}, "kernel_regularizer": null, "bias_regularizer": null, "activity_regularizer": null, "kernel_constraint": null, "bias_constraint": null}, "name": "block3f_se_reduce", "inbound_nodes": [[["block3f_se_reshape", 0, 0, {}]]]}, {"class_name": "Conv2D", "config": {"name": "block3f_se_expand", "trainable": true, "dtype": "float32", "filters": 480, "kernel_size": [1, 1], "strides": [1, 1], "padding": "same", "data_format": "channels_last", "dilation_rate": [1, 1], "groups": 1, "activation": "sigmoid", "use_bias": true, "kernel_initializer": {"class_name": "VarianceScaling", "config": {"scale": 2.0, "mode": "fan_out", "distribution": "truncated_normal", "seed": null}}, "bias_initializer": {"class_name": "Zeros", "config": {}}, "kernel_regularizer": null, "bias_regularizer": null, "activity_regularizer": null, "kernel_constraint": null, "bias_constraint": null}, "name": "block3f_se_expand", "inbound_nodes": [[["block3f_se_reduce", 0, 0, {}]]]}, {"class_name": "Multiply", "config": {"name": "block3f_se_excite", "trainable": true, "dtype": "float32"}, "name": "block3f_se_excite", "inbound_nodes": [[["block3f_activation", 0, 0, {}], ["block3f_se_expand", 0, 0, {}]]]}, {"class_name": "Conv2D", "config": {"name": "block3f_project_conv", "trainable": true, "dtype": "float32", "filters": 80, "kernel_size": [1, 1], "strides": [1, 1], "padding": "same", "data_format": "channels_last", "dilation_rate": [1, 1], "groups": 1, "activation": "linear", "use_bias": false, "kernel_initializer": {"class_name": "VarianceScaling", "config": {"scale": 2.0, "mode": "fan_out", "distribution": "truncated_normal", "seed": null}}, "bias_initializer": {"class_name": "Zeros", "config": {}}, "kernel_regularizer": null, "bias_regularizer": null, "activity_regularizer": null, "kernel_constraint": null, "bias_constraint": null}, "name": "block3f_project_conv", "inbound_nodes": [[["block3f_se_excite", 0, 0, {}]]]}, {"class_name": "BatchNormalization", "config": {"name": "block3f_project_bn", "trainable": true, "dtype": "float32", "axis": [3], "momentum": 0.99, "epsilon": 0.001, "center": true, "scale": true, "beta_initializer": {"class_name": "Zeros", "config": {}}, "gamma_initializer": {"class_name": "Ones", "config": {}}, "moving_mean_initializer": {"class_name": "Zeros", "config": {}}, "moving_variance_initializer": {"class_name": "Ones", "config": {}}, "beta_regularizer": null, "gamma_regularizer": null, "beta_constraint": null, "gamma_constraint": null}, "name": "block3f_project_bn", "inbound_nodes": [[["block3f_project_conv", 0, 0, {}]]]}, {"class_name": "Dropout", "config": {"name": "block3f_drop", "trainable": true, "dtype": "float32", "rate": 0.05818181818181818, "noise_shape": [null, 1, 1, 1], "seed": null}, "name": "block3f_drop", "inbound_nodes": [[["block3f_project_bn", 0, 0, {}]]]}, {"class_name": "Add", "config": {"name": "block3f_add", "trainable": true, "dtype": "float32"}, "name": "block3f_add", "inbound_nodes": [[["block3f_drop", 0, 0, {}], ["block3e_add", 0, 0, {}]]]}, {"class_name": "Conv2D", "config": {"name": "block3g_expand_conv", "trainable": true, "dtype": "float32", "filters": 480, "kernel_size": [1, 1], "strides": [1, 1], "padding": "same", "data_format": "channels_last", "dilation_rate": [1, 1], "groups": 1, "activation": "linear", "use_bias": false, "kernel_initializer": {"class_name": "VarianceScaling", "config": {"scale": 2.0, "mode": "fan_out", "distribution": "truncated_normal", "seed": null}}, "bias_initializer": {"class_name": "Zeros", "config": {}}, "kernel_regularizer": null, "bias_regularizer": null, "activity_regularizer": null, "kernel_constraint": null, "bias_constraint": null}, "name": "block3g_expand_conv", "inbound_nodes": [[["block3f_add", 0, 0, {}]]]}, {"class_name": "BatchNormalization", "config": {"name": "block3g_expand_bn", "trainable": true, "dtype": "float32", "axis": [3], "momentum": 0.99, "epsilon": 0.001, "center": true, "scale": true, "beta_initializer": {"class_name": "Zeros", "config": {}}, "gamma_initializer": {"class_name": "Ones", "config": {}}, "moving_mean_initializer": {"class_name": "Zeros", "config": {}}, "moving_variance_initializer": {"class_name": "Ones", "config": {}}, "beta_regularizer": null, "gamma_regularizer": null, "beta_constraint": null, "gamma_constraint": null}, "name": "block3g_expand_bn", "inbound_nodes": [[["block3g_expand_conv", 0, 0, {}]]]}, {"class_name": "Activation", "config": {"name": "block3g_expand_activation", "trainable": true, "dtype": "float32", "activation": "swish"}, "name": "block3g_expand_activation", "inbound_nodes": [[["block3g_expand_bn", 0, 0, {}]]]}, {"class_name": "DepthwiseConv2D", "config": {"name": "block3g_dwconv", "trainable": true, "dtype": "float32", "kernel_size": [5, 5], "strides": [1, 1], "padding": "same", "data_format": "channels_last", "dilation_rate": [1, 1], "groups": 1, "activation": "linear", "use_bias": false, "bias_initializer": {"class_name": "Zeros", "config": {}}, "bias_regularizer": null, "activity_regularizer": null, "bias_constraint": null, "depth_multiplier": 1, "depthwise_initializer": {"class_name": "VarianceScaling", "config": {"scale": 2.0, "mode": "fan_out", "distribution": "truncated_normal", "seed": null}}, "depthwise_regularizer": null, "depthwise_constraint": null}, "name": "block3g_dwconv", "inbound_nodes": [[["block3g_expand_activation", 0, 0, {}]]]}, {"class_name": "BatchNormalization", "config": {"name": "block3g_bn", "trainable": true, "dtype": "float32", "axis": [3], "momentum": 0.99, "epsilon": 0.001, "center": true, "scale": true, "beta_initializer": {"class_name": "Zeros", "config": {}}, "gamma_initializer": {"class_name": "Ones", "config": {}}, "moving_mean_initializer": {"class_name": "Zeros", "config": {}}, "moving_variance_initializer": {"class_name": "Ones", "config": {}}, "beta_regularizer": null, "gamma_regularizer": null, "beta_constraint": null, "gamma_constraint": null}, "name": "block3g_bn", "inbound_nodes": [[["block3g_dwconv", 0, 0, {}]]]}, {"class_name": "Activation", "config": {"name": "block3g_activation", "trainable": true, "dtype": "float32", "activation": "swish"}, "name": "block3g_activation", "inbound_nodes": [[["block3g_bn", 0, 0, {}]]]}, {"class_name": "GlobalAveragePooling2D", "config": {"name": "block3g_se_squeeze", "trainable": true, "dtype": "float32", "data_format": "channels_last"}, "name": "block3g_se_squeeze", "inbound_nodes": [[["block3g_activation", 0, 0, {}]]]}, {"class_name": "Reshape", "config": {"name": "block3g_se_reshape", "trainable": true, "dtype": "float32", "target_shape": [1, 1, 480]}, "name": "block3g_se_reshape", "inbound_nodes": [[["block3g_se_squeeze", 0, 0, {}]]]}, {"class_name": "Conv2D", "config": {"name": "block3g_se_reduce", "trainable": true, "dtype": "float32", "filters": 20, "kernel_size": [1, 1], "strides": [1, 1], "padding": "same", "data_format": "channels_last", "dilation_rate": [1, 1], "groups": 1, "activation": "swish", "use_bias": true, "kernel_initializer": {"class_name": "VarianceScaling", "config": {"scale": 2.0, "mode": "fan_out", "distribution": "truncated_normal", "seed": null}}, "bias_initializer": {"class_name": "Zeros", "config": {}}, "kernel_regularizer": null, "bias_regularizer": null, "activity_regularizer": null, "kernel_constraint": null, "bias_constraint": null}, "name": "block3g_se_reduce", "inbound_nodes": [[["block3g_se_reshape", 0, 0, {}]]]}, {"class_name": "Conv2D", "config": {"name": "block3g_se_expand", "trainable": true, "dtype": "float32", "filters": 480, "kernel_size": [1, 1], "strides": [1, 1], "padding": "same", "data_format": "channels_last", "dilation_rate": [1, 1], "groups": 1, "activation": "sigmoid", "use_bias": true, "kernel_initializer": {"class_name": "VarianceScaling", "config": {"scale": 2.0, "mode": "fan_out", "distribution": "truncated_normal", "seed": null}}, "bias_initializer": {"class_name": "Zeros", "config": {}}, "kernel_regularizer": null, "bias_regularizer": null, "activity_regularizer": null, "kernel_constraint": null, "bias_constraint": null}, "name": "block3g_se_expand", "inbound_nodes": [[["block3g_se_reduce", 0, 0, {}]]]}, {"class_name": "Multiply", "config": {"name": "block3g_se_excite", "trainable": true, "dtype": "float32"}, "name": "block3g_se_excite", "inbound_nodes": [[["block3g_activation", 0, 0, {}], ["block3g_se_expand", 0, 0, {}]]]}, {"class_name": "Conv2D", "config": {"name": "block3g_project_conv", "trainable": true, "dtype": "float32", "filters": 80, "kernel_size": [1, 1], "strides": [1, 1], "padding": "same", "data_format": "channels_last", "dilation_rate": [1, 1], "groups": 1, "activation": "linear", "use_bias": false, "kernel_initializer": {"class_name": "VarianceScaling", "config": {"scale": 2.0, "mode": "fan_out", "distribution": "truncated_normal", "seed": null}}, "bias_initializer": {"class_name": "Zeros", "config": {}}, "kernel_regularizer": null, "bias_regularizer": null, "activity_regularizer": null, "kernel_constraint": null, "bias_constraint": null}, "name": "block3g_project_conv", "inbound_nodes": [[["block3g_se_excite", 0, 0, {}]]]}, {"class_name": "BatchNormalization", "config": {"name": "block3g_project_bn", "trainable": true, "dtype": "float32", "axis": [3], "momentum": 0.99, "epsilon": 0.001, "center": true, "scale": true, "beta_initializer": {"class_name": "Zeros", "config": {}}, "gamma_initializer": {"class_name": "Ones", "config": {}}, "moving_mean_initializer": {"class_name": "Zeros", "config": {}}, "moving_variance_initializer": {"class_name": "Ones", "config": {}}, "beta_regularizer": null, "gamma_regularizer": null, "beta_constraint": null, "gamma_constraint": null}, "name": "block3g_project_bn", "inbound_nodes": [[["block3g_project_conv", 0, 0, {}]]]}, {"class_name": "Dropout", "config": {"name": "block3g_drop", "trainable": true, "dtype": "float32", "rate": 0.06181818181818183, "noise_shape": [null, 1, 1, 1], "seed": null}, "name": "block3g_drop", "inbound_nodes": [[["block3g_project_bn", 0, 0, {}]]]}, {"class_name": "Add", "config": {"name": "block3g_add", "trainable": true, "dtype": "float32"}, "name": "block3g_add", "inbound_nodes": [[["block3g_drop", 0, 0, {}], ["block3f_add", 0, 0, {}]]]}, {"class_name": "Conv2D", "config": {"name": "block4a_expand_conv", "trainable": true, "dtype": "float32", "filters": 480, "kernel_size": [1, 1], "strides": [1, 1], "padding": "same", "data_format": "channels_last", "dilation_rate": [1, 1], "groups": 1, "activation": "linear", "use_bias": false, "kernel_initializer": {"class_name": "VarianceScaling", "config": {"scale": 2.0, "mode": "fan_out", "distribution": "truncated_normal", "seed": null}}, "bias_initializer": {"class_name": "Zeros", "config": {}}, "kernel_regularizer": null, "bias_regularizer": null, "activity_regularizer": null, "kernel_constraint": null, "bias_constraint": null}, "name": "block4a_expand_conv", "inbound_nodes": [[["block3g_add", 0, 0, {}]]]}, {"class_name": "BatchNormalization", "config": {"name": "block4a_expand_bn", "trainable": true, "dtype": "float32", "axis": [3], "momentum": 0.99, "epsilon": 0.001, "center": true, "scale": true, "beta_initializer": {"class_name": "Zeros", "config": {}}, "gamma_initializer": {"class_name": "Ones", "config": {}}, "moving_mean_initializer": {"class_name": "Zeros", "config": {}}, "moving_variance_initializer": {"class_name": "Ones", "config": {}}, "beta_regularizer": null, "gamma_regularizer": null, "beta_constraint": null, "gamma_constraint": null}, "name": "block4a_expand_bn", "inbound_nodes": [[["block4a_expand_conv", 0, 0, {}]]]}, {"class_name": "Activation", "config": {"name": "block4a_expand_activation", "trainable": true, "dtype": "float32", "activation": "swish"}, "name": "block4a_expand_activation", "inbound_nodes": [[["block4a_expand_bn", 0, 0, {}]]]}, {"class_name": "ZeroPadding2D", "config": {"name": "block4a_dwconv_pad", "trainable": true, "dtype": "float32", "padding": [[0, 1], [0, 1]], "data_format": "channels_last"}, "name": "block4a_dwconv_pad", "inbound_nodes": [[["block4a_expand_activation", 0, 0, {}]]]}, {"class_name": "DepthwiseConv2D", "config": {"name": "block4a_dwconv", "trainable": true, "dtype": "float32", "kernel_size": [3, 3], "strides": [2, 2], "padding": "valid", "data_format": "channels_last", "dilation_rate": [1, 1], "groups": 1, "activation": "linear", "use_bias": false, "bias_initializer": {"class_name": "Zeros", "config": {}}, "bias_regularizer": null, "activity_regularizer": null, "bias_constraint": null, "depth_multiplier": 1, "depthwise_initializer": {"class_name": "VarianceScaling", "config": {"scale": 2.0, "mode": "fan_out", "distribution": "truncated_normal", "seed": null}}, "depthwise_regularizer": null, "depthwise_constraint": null}, "name": "block4a_dwconv", "inbound_nodes": [[["block4a_dwconv_pad", 0, 0, {}]]]}, {"class_name": "BatchNormalization", "config": {"name": "block4a_bn", "trainable": true, "dtype": "float32", "axis": [3], "momentum": 0.99, "epsilon": 0.001, "center": true, "scale": true, "beta_initializer": {"class_name": "Zeros", "config": {}}, "gamma_initializer": {"class_name": "Ones", "config": {}}, "moving_mean_initializer": {"class_name": "Zeros", "config": {}}, "moving_variance_initializer": {"class_name": "Ones", "config": {}}, "beta_regularizer": null, "gamma_regularizer": null, "beta_constraint": null, "gamma_constraint": null}, "name": "block4a_bn", "inbound_nodes": [[["block4a_dwconv", 0, 0, {}]]]}, {"class_name": "Activation", "config": {"name": "block4a_activation", "trainable": true, "dtype": "float32", "activation": "swish"}, "name": "block4a_activation", "inbound_nodes": [[["block4a_bn", 0, 0, {}]]]}, {"class_name": "GlobalAveragePooling2D", "config": {"name": "block4a_se_squeeze", "trainable": true, "dtype": "float32", "data_format": "channels_last"}, "name": "block4a_se_squeeze", "inbound_nodes": [[["block4a_activation", 0, 0, {}]]]}, {"class_name": "Reshape", "config": {"name": "block4a_se_reshape", "trainable": true, "dtype": "float32", "target_shape": [1, 1, 480]}, "name": "block4a_se_reshape", "inbound_nodes": [[["block4a_se_squeeze", 0, 0, {}]]]}, {"class_name": "Conv2D", "config": {"name": "block4a_se_reduce", "trainable": true, "dtype": "float32", "filters": 20, "kernel_size": [1, 1], "strides": [1, 1], "padding": "same", "data_format": "channels_last", "dilation_rate": [1, 1], "groups": 1, "activation": "swish", "use_bias": true, "kernel_initializer": {"class_name": "VarianceScaling", "config": {"scale": 2.0, "mode": "fan_out", "distribution": "truncated_normal", "seed": null}}, "bias_initializer": {"class_name": "Zeros", "config": {}}, "kernel_regularizer": null, "bias_regularizer": null, "activity_regularizer": null, "kernel_constraint": null, "bias_constraint": null}, "name": "block4a_se_reduce", "inbound_nodes": [[["block4a_se_reshape", 0, 0, {}]]]}, {"class_name": "Conv2D", "config": {"name": "block4a_se_expand", "trainable": true, "dtype": "float32", "filters": 480, "kernel_size": [1, 1], "strides": [1, 1], "padding": "same", "data_format": "channels_last", "dilation_rate": [1, 1], "groups": 1, "activation": "sigmoid", "use_bias": true, "kernel_initializer": {"class_name": "VarianceScaling", "config": {"scale": 2.0, "mode": "fan_out", "distribution": "truncated_normal", "seed": null}}, "bias_initializer": {"class_name": "Zeros", "config": {}}, "kernel_regularizer": null, "bias_regularizer": null, "activity_regularizer": null, "kernel_constraint": null, "bias_constraint": null}, "name": "block4a_se_expand", "inbound_nodes": [[["block4a_se_reduce", 0, 0, {}]]]}, {"class_name": "Multiply", "config": {"name": "block4a_se_excite", "trainable": true, "dtype": "float32"}, "name": "block4a_se_excite", "inbound_nodes": [[["block4a_activation", 0, 0, {}], ["block4a_se_expand", 0, 0, {}]]]}, {"class_name": "Conv2D", "config": {"name": "block4a_project_conv", "trainable": true, "dtype": "float32", "filters": 160, "kernel_size": [1, 1], "strides": [1, 1], "padding": "same", "data_format": "channels_last", "dilation_rate": [1, 1], "groups": 1, "activation": "linear", "use_bias": false, "kernel_initializer": {"class_name": "VarianceScaling", "config": {"scale": 2.0, "mode": "fan_out", "distribution": "truncated_normal", "seed": null}}, "bias_initializer": {"class_name": "Zeros", "config": {}}, "kernel_regularizer": null, "bias_regularizer": null, "activity_regularizer": null, "kernel_constraint": null, "bias_constraint": null}, "name": "block4a_project_conv", "inbound_nodes": [[["block4a_se_excite", 0, 0, {}]]]}, {"class_name": "BatchNormalization", "config": {"name": "block4a_project_bn", "trainable": true, "dtype": "float32", "axis": [3], "momentum": 0.99, "epsilon": 0.001, "center": true, "scale": true, "beta_initializer": {"class_name": "Zeros", "config": {}}, "gamma_initializer": {"class_name": "Ones", "config": {}}, "moving_mean_initializer": {"class_name": "Zeros", "config": {}}, "moving_variance_initializer": {"class_name": "Ones", "config": {}}, "beta_regularizer": null, "gamma_regularizer": null, "beta_constraint": null, "gamma_constraint": null}, "name": "block4a_project_bn", "inbound_nodes": [[["block4a_project_conv", 0, 0, {}]]]}, {"class_name": "Conv2D", "config": {"name": "block4b_expand_conv", "trainable": true, "dtype": "float32", "filters": 960, "kernel_size": [1, 1], "strides": [1, 1], "padding": "same", "data_format": "channels_last", "dilation_rate": [1, 1], "groups": 1, "activation": "linear", "use_bias": false, "kernel_initializer": {"class_name": "VarianceScaling", "config": {"scale": 2.0, "mode": "fan_out", "distribution": "truncated_normal", "seed": null}}, "bias_initializer": {"class_name": "Zeros", "config": {}}, "kernel_regularizer": null, "bias_regularizer": null, "activity_regularizer": null, "kernel_constraint": null, "bias_constraint": null}, "name": "block4b_expand_conv", "inbound_nodes": [[["block4a_project_bn", 0, 0, {}]]]}, {"class_name": "BatchNormalization", "config": {"name": "block4b_expand_bn", "trainable": true, "dtype": "float32", "axis": [3], "momentum": 0.99, "epsilon": 0.001, "center": true, "scale": true, "beta_initializer": {"class_name": "Zeros", "config": {}}, "gamma_initializer": {"class_name": "Ones", "config": {}}, "moving_mean_initializer": {"class_name": "Zeros", "config": {}}, "moving_variance_initializer": {"class_name": "Ones", "config": {}}, "beta_regularizer": null, "gamma_regularizer": null, "beta_constraint": null, "gamma_constraint": null}, "name": "block4b_expand_bn", "inbound_nodes": [[["block4b_expand_conv", 0, 0, {}]]]}, {"class_name": "Activation", "config": {"name": "block4b_expand_activation", "trainable": true, "dtype": "float32", "activation": "swish"}, "name": "block4b_expand_activation", "inbound_nodes": [[["block4b_expand_bn", 0, 0, {}]]]}, {"class_name": "DepthwiseConv2D", "config": {"name": "block4b_dwconv", "trainable": true, "dtype": "float32", "kernel_size": [3, 3], "strides": [1, 1], "padding": "same", "data_format": "channels_last", "dilation_rate": [1, 1], "groups": 1, "activation": "linear", "use_bias": false, "bias_initializer": {"class_name": "Zeros", "config": {}}, "bias_regularizer": null, "activity_regularizer": null, "bias_constraint": null, "depth_multiplier": 1, "depthwise_initializer": {"class_name": "VarianceScaling", "config": {"scale": 2.0, "mode": "fan_out", "distribution": "truncated_normal", "seed": null}}, "depthwise_regularizer": null, "depthwise_constraint": null}, "name": "block4b_dwconv", "inbound_nodes": [[["block4b_expand_activation", 0, 0, {}]]]}, {"class_name": "BatchNormalization", "config": {"name": "block4b_bn", "trainable": true, "dtype": "float32", "axis": [3], "momentum": 0.99, "epsilon": 0.001, "center": true, "scale": true, "beta_initializer": {"class_name": "Zeros", "config": {}}, "gamma_initializer": {"class_name": "Ones", "config": {}}, "moving_mean_initializer": {"class_name": "Zeros", "config": {}}, "moving_variance_initializer": {"class_name": "Ones", "config": {}}, "beta_regularizer": null, "gamma_regularizer": null, "beta_constraint": null, "gamma_constraint": null}, "name": "block4b_bn", "inbound_nodes": [[["block4b_dwconv", 0, 0, {}]]]}, {"class_name": "Activation", "config": {"name": "block4b_activation", "trainable": true, "dtype": "float32", "activation": "swish"}, "name": "block4b_activation", "inbound_nodes": [[["block4b_bn", 0, 0, {}]]]}, {"class_name": "GlobalAveragePooling2D", "config": {"name": "block4b_se_squeeze", "trainable": true, "dtype": "float32", "data_format": "channels_last"}, "name": "block4b_se_squeeze", "inbound_nodes": [[["block4b_activation", 0, 0, {}]]]}, {"class_name": "Reshape", "config": {"name": "block4b_se_reshape", "trainable": true, "dtype": "float32", "target_shape": [1, 1, 960]}, "name": "block4b_se_reshape", "inbound_nodes": [[["block4b_se_squeeze", 0, 0, {}]]]}, {"class_name": "Conv2D", "config": {"name": "block4b_se_reduce", "trainable": true, "dtype": "float32", "filters": 40, "kernel_size": [1, 1], "strides": [1, 1], "padding": "same", "data_format": "channels_last", "dilation_rate": [1, 1], "groups": 1, "activation": "swish", "use_bias": true, "kernel_initializer": {"class_name": "VarianceScaling", "config": {"scale": 2.0, "mode": "fan_out", "distribution": "truncated_normal", "seed": null}}, "bias_initializer": {"class_name": "Zeros", "config": {}}, "kernel_regularizer": null, "bias_regularizer": null, "activity_regularizer": null, "kernel_constraint": null, "bias_constraint": null}, "name": "block4b_se_reduce", "inbound_nodes": [[["block4b_se_reshape", 0, 0, {}]]]}, {"class_name": "Conv2D", "config": {"name": "block4b_se_expand", "trainable": true, "dtype": "float32", "filters": 960, "kernel_size": [1, 1], "strides": [1, 1], "padding": "same", "data_format": "channels_last", "dilation_rate": [1, 1], "groups": 1, "activation": "sigmoid", "use_bias": true, "kernel_initializer": {"class_name": "VarianceScaling", "config": {"scale": 2.0, "mode": "fan_out", "distribution": "truncated_normal", "seed": null}}, "bias_initializer": {"class_name": "Zeros", "config": {}}, "kernel_regularizer": null, "bias_regularizer": null, "activity_regularizer": null, "kernel_constraint": null, "bias_constraint": null}, "name": "block4b_se_expand", "inbound_nodes": [[["block4b_se_reduce", 0, 0, {}]]]}, {"class_name": "Multiply", "config": {"name": "block4b_se_excite", "trainable": true, "dtype": "float32"}, "name": "block4b_se_excite", "inbound_nodes": [[["block4b_activation", 0, 0, {}], ["block4b_se_expand", 0, 0, {}]]]}, {"class_name": "Conv2D", "config": {"name": "block4b_project_conv", "trainable": true, "dtype": "float32", "filters": 160, "kernel_size": [1, 1], "strides": [1, 1], "padding": "same", "data_format": "channels_last", "dilation_rate": [1, 1], "groups": 1, "activation": "linear", "use_bias": false, "kernel_initializer": {"class_name": "VarianceScaling", "config": {"scale": 2.0, "mode": "fan_out", "distribution": "truncated_normal", "seed": null}}, "bias_initializer": {"class_name": "Zeros", "config": {}}, "kernel_regularizer": null, "bias_regularizer": null, "activity_regularizer": null, "kernel_constraint": null, "bias_constraint": null}, "name": "block4b_project_conv", "inbound_nodes": [[["block4b_se_excite", 0, 0, {}]]]}, {"class_name": "BatchNormalization", "config": {"name": "block4b_project_bn", "trainable": true, "dtype": "float32", "axis": [3], "momentum": 0.99, "epsilon": 0.001, "center": true, "scale": true, "beta_initializer": {"class_name": "Zeros", "config": {}}, "gamma_initializer": {"class_name": "Ones", "config": {}}, "moving_mean_initializer": {"class_name": "Zeros", "config": {}}, "moving_variance_initializer": {"class_name": "Ones", "config": {}}, "beta_regularizer": null, "gamma_regularizer": null, "beta_constraint": null, "gamma_constraint": null}, "name": "block4b_project_bn", "inbound_nodes": [[["block4b_project_conv", 0, 0, {}]]]}, {"class_name": "Dropout", "config": {"name": "block4b_drop", "trainable": true, "dtype": "float32", "rate": 0.06909090909090909, "noise_shape": [null, 1, 1, 1], "seed": null}, "name": "block4b_drop", "inbound_nodes": [[["block4b_project_bn", 0, 0, {}]]]}, {"class_name": "Add", "config": {"name": "block4b_add", "trainable": true, "dtype": "float32"}, "name": "block4b_add", "inbound_nodes": [[["block4b_drop", 0, 0, {}], ["block4a_project_bn", 0, 0, {}]]]}, {"class_name": "Conv2D", "config": {"name": "block4c_expand_conv", "trainable": true, "dtype": "float32", "filters": 960, "kernel_size": [1, 1], "strides": [1, 1], "padding": "same", "data_format": "channels_last", "dilation_rate": [1, 1], "groups": 1, "activation": "linear", "use_bias": false, "kernel_initializer": {"class_name": "VarianceScaling", "config": {"scale": 2.0, "mode": "fan_out", "distribution": "truncated_normal", "seed": null}}, "bias_initializer": {"class_name": "Zeros", "config": {}}, "kernel_regularizer": null, "bias_regularizer": null, "activity_regularizer": null, "kernel_constraint": null, "bias_constraint": null}, "name": "block4c_expand_conv", "inbound_nodes": [[["block4b_add", 0, 0, {}]]]}, {"class_name": "BatchNormalization", "config": {"name": "block4c_expand_bn", "trainable": true, "dtype": "float32", "axis": [3], "momentum": 0.99, "epsilon": 0.001, "center": true, "scale": true, "beta_initializer": {"class_name": "Zeros", "config": {}}, "gamma_initializer": {"class_name": "Ones", "config": {}}, "moving_mean_initializer": {"class_name": "Zeros", "config": {}}, "moving_variance_initializer": {"class_name": "Ones", "config": {}}, "beta_regularizer": null, "gamma_regularizer": null, "beta_constraint": null, "gamma_constraint": null}, "name": "block4c_expand_bn", "inbound_nodes": [[["block4c_expand_conv", 0, 0, {}]]]}, {"class_name": "Activation", "config": {"name": "block4c_expand_activation", "trainable": true, "dtype": "float32", "activation": "swish"}, "name": "block4c_expand_activation", "inbound_nodes": [[["block4c_expand_bn", 0, 0, {}]]]}, {"class_name": "DepthwiseConv2D", "config": {"name": "block4c_dwconv", "trainable": true, "dtype": "float32", "kernel_size": [3, 3], "strides": [1, 1], "padding": "same", "data_format": "channels_last", "dilation_rate": [1, 1], "groups": 1, "activation": "linear", "use_bias": false, "bias_initializer": {"class_name": "Zeros", "config": {}}, "bias_regularizer": null, "activity_regularizer": null, "bias_constraint": null, "depth_multiplier": 1, "depthwise_initializer": {"class_name": "VarianceScaling", "config": {"scale": 2.0, "mode": "fan_out", "distribution": "truncated_normal", "seed": null}}, "depthwise_regularizer": null, "depthwise_constraint": null}, "name": "block4c_dwconv", "inbound_nodes": [[["block4c_expand_activation", 0, 0, {}]]]}, {"class_name": "BatchNormalization", "config": {"name": "block4c_bn", "trainable": true, "dtype": "float32", "axis": [3], "momentum": 0.99, "epsilon": 0.001, "center": true, "scale": true, "beta_initializer": {"class_name": "Zeros", "config": {}}, "gamma_initializer": {"class_name": "Ones", "config": {}}, "moving_mean_initializer": {"class_name": "Zeros", "config": {}}, "moving_variance_initializer": {"class_name": "Ones", "config": {}}, "beta_regularizer": null, "gamma_regularizer": null, "beta_constraint": null, "gamma_constraint": null}, "name": "block4c_bn", "inbound_nodes": [[["block4c_dwconv", 0, 0, {}]]]}, {"class_name": "Activation", "config": {"name": "block4c_activation", "trainable": true, "dtype": "float32", "activation": "swish"}, "name": "block4c_activation", "inbound_nodes": [[["block4c_bn", 0, 0, {}]]]}, {"class_name": "GlobalAveragePooling2D", "config": {"name": "block4c_se_squeeze", "trainable": true, "dtype": "float32", "data_format": "channels_last"}, "name": "block4c_se_squeeze", "inbound_nodes": [[["block4c_activation", 0, 0, {}]]]}, {"class_name": "Reshape", "config": {"name": "block4c_se_reshape", "trainable": true, "dtype": "float32", "target_shape": [1, 1, 960]}, "name": "block4c_se_reshape", "inbound_nodes": [[["block4c_se_squeeze", 0, 0, {}]]]}, {"class_name": "Conv2D", "config": {"name": "block4c_se_reduce", "trainable": true, "dtype": "float32", "filters": 40, "kernel_size": [1, 1], "strides": [1, 1], "padding": "same", "data_format": "channels_last", "dilation_rate": [1, 1], "groups": 1, "activation": "swish", "use_bias": true, "kernel_initializer": {"class_name": "VarianceScaling", "config": {"scale": 2.0, "mode": "fan_out", "distribution": "truncated_normal", "seed": null}}, "bias_initializer": {"class_name": "Zeros", "config": {}}, "kernel_regularizer": null, "bias_regularizer": null, "activity_regularizer": null, "kernel_constraint": null, "bias_constraint": null}, "name": "block4c_se_reduce", "inbound_nodes": [[["block4c_se_reshape", 0, 0, {}]]]}, {"class_name": "Conv2D", "config": {"name": "block4c_se_expand", "trainable": true, "dtype": "float32", "filters": 960, "kernel_size": [1, 1], "strides": [1, 1], "padding": "same", "data_format": "channels_last", "dilation_rate": [1, 1], "groups": 1, "activation": "sigmoid", "use_bias": true, "kernel_initializer": {"class_name": "VarianceScaling", "config": {"scale": 2.0, "mode": "fan_out", "distribution": "truncated_normal", "seed": null}}, "bias_initializer": {"class_name": "Zeros", "config": {}}, "kernel_regularizer": null, "bias_regularizer": null, "activity_regularizer": null, "kernel_constraint": null, "bias_constraint": null}, "name": "block4c_se_expand", "inbound_nodes": [[["block4c_se_reduce", 0, 0, {}]]]}, {"class_name": "Multiply", "config": {"name": "block4c_se_excite", "trainable": true, "dtype": "float32"}, "name": "block4c_se_excite", "inbound_nodes": [[["block4c_activation", 0, 0, {}], ["block4c_se_expand", 0, 0, {}]]]}, {"class_name": "Conv2D", "config": {"name": "block4c_project_conv", "trainable": true, "dtype": "float32", "filters": 160, "kernel_size": [1, 1], "strides": [1, 1], "padding": "same", "data_format": "channels_last", "dilation_rate": [1, 1], "groups": 1, "activation": "linear", "use_bias": false, "kernel_initializer": {"class_name": "VarianceScaling", "config": {"scale": 2.0, "mode": "fan_out", "distribution": "truncated_normal", "seed": null}}, "bias_initializer": {"class_name": "Zeros", "config": {}}, "kernel_regularizer": null, "bias_regularizer": null, "activity_regularizer": null, "kernel_constraint": null, "bias_constraint": null}, "name": "block4c_project_conv", "inbound_nodes": [[["block4c_se_excite", 0, 0, {}]]]}, {"class_name": "BatchNormalization", "config": {"name": "block4c_project_bn", "trainable": true, "dtype": "float32", "axis": [3], "momentum": 0.99, "epsilon": 0.001, "center": true, "scale": true, "beta_initializer": {"class_name": "Zeros", "config": {}}, "gamma_initializer": {"class_name": "Ones", "config": {}}, "moving_mean_initializer": {"class_name": "Zeros", "config": {}}, "moving_variance_initializer": {"class_name": "Ones", "config": {}}, "beta_regularizer": null, "gamma_regularizer": null, "beta_constraint": null, "gamma_constraint": null}, "name": "block4c_project_bn", "inbound_nodes": [[["block4c_project_conv", 0, 0, {}]]]}, {"class_name": "Dropout", "config": {"name": "block4c_drop", "trainable": true, "dtype": "float32", "rate": 0.07272727272727272, "noise_shape": [null, 1, 1, 1], "seed": null}, "name": "block4c_drop", "inbound_nodes": [[["block4c_project_bn", 0, 0, {}]]]}, {"class_name": "Add", "config": {"name": "block4c_add", "trainable": true, "dtype": "float32"}, "name": "block4c_add", "inbound_nodes": [[["block4c_drop", 0, 0, {}], ["block4b_add", 0, 0, {}]]]}, {"class_name": "Conv2D", "config": {"name": "block4d_expand_conv", "trainable": true, "dtype": "float32", "filters": 960, "kernel_size": [1, 1], "strides": [1, 1], "padding": "same", "data_format": "channels_last", "dilation_rate": [1, 1], "groups": 1, "activation": "linear", "use_bias": false, "kernel_initializer": {"class_name": "VarianceScaling", "config": {"scale": 2.0, "mode": "fan_out", "distribution": "truncated_normal", "seed": null}}, "bias_initializer": {"class_name": "Zeros", "config": {}}, "kernel_regularizer": null, "bias_regularizer": null, "activity_regularizer": null, "kernel_constraint": null, "bias_constraint": null}, "name": "block4d_expand_conv", "inbound_nodes": [[["block4c_add", 0, 0, {}]]]}, {"class_name": "BatchNormalization", "config": {"name": "block4d_expand_bn", "trainable": true, "dtype": "float32", "axis": [3], "momentum": 0.99, "epsilon": 0.001, "center": true, "scale": true, "beta_initializer": {"class_name": "Zeros", "config": {}}, "gamma_initializer": {"class_name": "Ones", "config": {}}, "moving_mean_initializer": {"class_name": "Zeros", "config": {}}, "moving_variance_initializer": {"class_name": "Ones", "config": {}}, "beta_regularizer": null, "gamma_regularizer": null, "beta_constraint": null, "gamma_constraint": null}, "name": "block4d_expand_bn", "inbound_nodes": [[["block4d_expand_conv", 0, 0, {}]]]}, {"class_name": "Activation", "config": {"name": "block4d_expand_activation", "trainable": true, "dtype": "float32", "activation": "swish"}, "name": "block4d_expand_activation", "inbound_nodes": [[["block4d_expand_bn", 0, 0, {}]]]}, {"class_name": "DepthwiseConv2D", "config": {"name": "block4d_dwconv", "trainable": true, "dtype": "float32", "kernel_size": [3, 3], "strides": [1, 1], "padding": "same", "data_format": "channels_last", "dilation_rate": [1, 1], "groups": 1, "activation": "linear", "use_bias": false, "bias_initializer": {"class_name": "Zeros", "config": {}}, "bias_regularizer": null, "activity_regularizer": null, "bias_constraint": null, "depth_multiplier": 1, "depthwise_initializer": {"class_name": "VarianceScaling", "config": {"scale": 2.0, "mode": "fan_out", "distribution": "truncated_normal", "seed": null}}, "depthwise_regularizer": null, "depthwise_constraint": null}, "name": "block4d_dwconv", "inbound_nodes": [[["block4d_expand_activation", 0, 0, {}]]]}, {"class_name": "BatchNormalization", "config": {"name": "block4d_bn", "trainable": true, "dtype": "float32", "axis": [3], "momentum": 0.99, "epsilon": 0.001, "center": true, "scale": true, "beta_initializer": {"class_name": "Zeros", "config": {}}, "gamma_initializer": {"class_name": "Ones", "config": {}}, "moving_mean_initializer": {"class_name": "Zeros", "config": {}}, "moving_variance_initializer": {"class_name": "Ones", "config": {}}, "beta_regularizer": null, "gamma_regularizer": null, "beta_constraint": null, "gamma_constraint": null}, "name": "block4d_bn", "inbound_nodes": [[["block4d_dwconv", 0, 0, {}]]]}, {"class_name": "Activation", "config": {"name": "block4d_activation", "trainable": true, "dtype": "float32", "activation": "swish"}, "name": "block4d_activation", "inbound_nodes": [[["block4d_bn", 0, 0, {}]]]}, {"class_name": "GlobalAveragePooling2D", "config": {"name": "block4d_se_squeeze", "trainable": true, "dtype": "float32", "data_format": "channels_last"}, "name": "block4d_se_squeeze", "inbound_nodes": [[["block4d_activation", 0, 0, {}]]]}, {"class_name": "Reshape", "config": {"name": "block4d_se_reshape", "trainable": true, "dtype": "float32", "target_shape": [1, 1, 960]}, "name": "block4d_se_reshape", "inbound_nodes": [[["block4d_se_squeeze", 0, 0, {}]]]}, {"class_name": "Conv2D", "config": {"name": "block4d_se_reduce", "trainable": true, "dtype": "float32", "filters": 40, "kernel_size": [1, 1], "strides": [1, 1], "padding": "same", "data_format": "channels_last", "dilation_rate": [1, 1], "groups": 1, "activation": "swish", "use_bias": true, "kernel_initializer": {"class_name": "VarianceScaling", "config": {"scale": 2.0, "mode": "fan_out", "distribution": "truncated_normal", "seed": null}}, "bias_initializer": {"class_name": "Zeros", "config": {}}, "kernel_regularizer": null, "bias_regularizer": null, "activity_regularizer": null, "kernel_constraint": null, "bias_constraint": null}, "name": "block4d_se_reduce", "inbound_nodes": [[["block4d_se_reshape", 0, 0, {}]]]}, {"class_name": "Conv2D", "config": {"name": "block4d_se_expand", "trainable": true, "dtype": "float32", "filters": 960, "kernel_size": [1, 1], "strides": [1, 1], "padding": "same", "data_format": "channels_last", "dilation_rate": [1, 1], "groups": 1, "activation": "sigmoid", "use_bias": true, "kernel_initializer": {"class_name": "VarianceScaling", "config": {"scale": 2.0, "mode": "fan_out", "…
loat32"}, {"name": "block4e_bn/moving_mean", "shape": [960], "dtype": "float32"}, {"name": "block4e_bn/moving_variance", "shape": [960], "dtype": "float32"}, {"name": "block4e_dwconv/depthwise_kernel", "shape": [3, 3, 960, 1], "dtype": "float32"}, {"name": "block4e_expand_bn/gamma", "shape": [960], "dtype": "float32"}, {"name": "block4e_expand_bn/beta", "shape": [960], "dtype": "float32"}, {"name": "block4e_expand_bn/moving_mean", "shape": [960], "dtype": "float32"}, {"name": "block4e_expand_bn/moving_variance", "shape": [960], "dtype": "float32"}, {"name": "block4e_expand_conv/kernel", "shape": [1, 1, 160, 960], "dtype": "float32"}, {"name": "block4e_project_bn/gamma", "shape": [160], "dtype": "float32"}, {"name": "block4e_project_bn/beta", "shape": [160], "dtype": "float32"}, {"name": "block4e_project_bn/moving_mean", "shape": [160], "dtype": "float32"}, {"name": "block4e_project_bn/moving_variance", "shape": [160], "dtype": "float32"}, {"name": "block4e_project_conv/kernel", "shape": [1, 1, 960, 160], "dtype": "float32"}, {"name": "block4e_se_expand/kernel", "shape": [1, 1, 40, 960], "dtype": "float32"}, {"name": "block4e_se_expand/bias", "shape": [960], "dtype": "float32"}, {"name": "block4e_se_reduce/kernel", "shape": [1, 1, 960, 40], "dtype": "float32"}, {"name": "block4e_se_reduce/bias", "shape": [40], "dtype": "float32"}, {"name": "block4f_bn/gamma", "shape": [960], "dtype": "float32"}, {"name": "block4f_bn/beta", "shape": [960], "dtype": "float32"}, {"name": "block4f_bn/moving_mean", "shape": [960], "dtype": "float32"}, {"name": "block4f_bn/moving_variance", "shape": [960], "dtype": "float32"}, {"name": "block4f_dwconv/depthwise_kernel", "shape": [3, 3, 960, 1], "dtype": "float32"}, {"name": "block4f_expand_bn/gamma", "shape": [960], "dtype": "float32"}, {"name": "block4f_expand_bn/beta", "shape": [960], "dtype": "float32"}, {"name": "block4f_expand_bn/moving_mean", "shape": [960], "dtype": "float32"}, {"name": "block4f_expand_bn/moving_variance", "shape": [960], "dtype": "float32"}, {"name": "block4f_expand_conv/kernel", "shape": [1, 1, 160, 960], "dtype": "float32"}, {"name": "block4f_project_bn/gamma", "shape": [160], "dtype": "float32"}, {"name": "block4f_project_bn/beta", "shape": [160], "dtype": "float32"}, {"name": "block4f_project_bn/moving_mean", "shape": [160], "dtype": "float32"}, {"name": "block4f_project_bn/moving_variance", "shape": [160], "dtype": "float32"}, {"name": "block4f_project_conv/kernel", "shape": [1, 1, 960, 160], "dtype": "float32"}, {"name": "block4f_se_expand/kernel", "shape": [1, 1, 40, 960], "dtype": "float32"}, {"name": "block4f_se_expand/bias", "shape": [960], "dtype": "float32"}, {"name": "block4f_se_reduce/kernel", "shape": [1, 1, 960, 40], "dtype": "float32"}, {"name": "block4f_se_reduce/bias", "shape": [40], "dtype": "float32"}, {"name": "block4g_bn/gamma", "shape": [960], "dtype": "float32"}, {"name": "block4g_bn/beta", "shape": [960], "dtype": "float32"}, {"name": "block4g_bn/moving_mean", "shape": [960], "dtype": "float32"}, {"name": "block4g_bn/moving_variance", "shape": [960], "dtype": "float32"}, {"name": "block4g_dwconv/depthwise_kernel", "shape": [3, 3, 960, 1], "dtype": "float32"}, {"name": "block4g_expand_bn/gamma", "shape": [960], "dtype": "float32"}, {"name": "block4g_expand_bn/beta", "shape": [960], "dtype": "float32"}, {"name": "block4g_expand_bn/moving_mean", "shape": [960], "dtype": "float32"}, {"name": "block4g_expand_bn/moving_variance", "shape": [960], "dtype": "float32"}, {"name": "block4g_expand_conv/kernel", "shape": [1, 1, 160, 960], "dtype": "float32"}, {"name": "block4g_project_bn/gamma", "shape": [160], "dtype": "float32"}, {"name": "block4g_project_bn/beta", "shape": [160], "dtype": "float32"}, {"name": "block4g_project_bn/moving_mean", "shape": [160], "dtype": "float32"}, {"name": "block4g_project_bn/moving_variance", "shape": [160], "dtype": "float32"}, {"name": "block4g_project_conv/kernel", "shape": [1, 1, 960, 160], "dtype": "float32"}, {"name": "block4g_se_expand/kernel", "shape": [1, 1, 40, 960], "dtype": "float32"}, {"name": "block4g_se_expand/bias", "shape": [960], "dtype": "float32"}, {"name": "block4g_se_reduce/kernel", "shape": [1, 1, 960, 40], "dtype": "float32"}, {"name": "block4g_se_reduce/bias", "shape": [40], "dtype": "float32"}, {"name": "block4h_bn/gamma", "shape": [960], "dtype": "float32"}, {"name": "block4h_bn/beta", "shape": [960], "dtype": "float32"}, {"name": "block4h_bn/moving_mean", "shape": [960], "dtype": "float32"}, {"name": "block4h_bn/moving_variance", "shape": [960], "dtype": "float32"}, {"name": "block4h_dwconv/depthwise_kernel", "shape": [3, 3, 960, 1], "dtype": "float32"}, {"name": "block4h_expand_bn/gamma", "shape": [960], "dtype": "float32"}, {"name": "block4h_expand_bn/beta", "shape": [960], "dtype": "float32"}, {"name": "block4h_expand_bn/moving_mean", "shape": [960], "dtype": "float32"}, {"name": "block4h_expand_bn/moving_variance", "shape": [960], "dtype": "float32"}, {"name": "block4h_expand_conv/kernel", "shape": [1, 1, 160, 960], "dtype": "float32"}, {"name": "block4h_project_bn/gamma", "shape": [160], "dtype": "float32"}, {"name": "block4h_project_bn/beta", "shape": [160], "dtype": "float32"}, {"name": "block4h_project_bn/moving_mean", "shape": [160], "dtype": "float32"}, {"name": "block4h_project_bn/moving_variance", "shape": [160], "dtype": "float32"}, {"name": "block4h_project_conv/kernel", "shape": [1, 1, 960, 160], "dtype": "float32"}, {"name": "block4h_se_expand/kernel", "shape": [1, 1, 40, 960], "dtype": "float32"}, {"name": "block4h_se_expand/bias", "shape": [960], "dtype": "float32"}, {"name": "block4h_se_reduce/kernel", "shape": [1, 1, 960, 40], "dtype": "float32"}, {"name": "block4h_se_reduce/bias", "shape": [40], "dtype": "float32"}, {"name": "block4i_bn/gamma", "shape": [960], "dtype": "float32"}, {"name": "block4i_bn/beta", "shape": [960], "dtype": "float32"}, {"name": "block4i_bn/moving_mean", "shape": [960], "dtype": "float32"}, {"name": "block4i_bn/moving_variance", "shape": [960], "dtype": "float32"}, {"name": "block4i_dwconv/depthwise_kernel", "shape": [3, 3, 960, 1], "dtype": "float32"}, {"name": "block4i_expand_bn/gamma", "shape": [960], "dtype": "float32"}, {"name": "block4i_expand_bn/beta", "shape": [960], "dtype": "float32"}, {"name": "block4i_expand_bn/moving_mean", "shape": [960], "dtype": "float32"}, {"name": "block4i_expand_bn/moving_variance", "shape": [960], "dtype": "float32"}, {"name": "block4i_expand_conv/kernel", "shape": [1, 1, 160, 960], "dtype": "float32"}, {"name": "block4i_project_bn/gamma", "shape": [160], "dtype": "float32"}, {"name": "block4i_project_bn/beta", "shape": [160], "dtype": "float32"}, {"name": "block4i_project_bn/moving_mean", "shape": [160], "dtype": "float32"}, {"name": "block4i_project_bn/moving_variance", "shape": [160], "dtype": "float32"}, {"name": "block4i_project_conv/kernel", "shape": [1, 1, 960, 160], "dtype": "float32"}, {"name": "block4i_se_expand/kernel", "shape": [1, 1, 40, 960], "dtype": "float32"}, {"name": "block4i_se_expand/bias", "shape": [960], "dtype": "float32"}, {"name": "block4i_se_reduce/kernel", "shape": [1, 1, 960, 40], "dtype": "float32"}, {"name": "block4i_se_reduce/bias", "shape": [40], "dtype": "float32"}, {"name": "block4j_bn/gamma", "shape": [960], "dtype": "float32"}, {"name": "block4j_bn/beta", "shape": [960], "dtype": "float32"}, {"name": "block4j_bn/moving_mean", "shape": [960], "dtype": "float32"}, {"name": "block4j_bn/moving_variance", "shape": [960], "dtype": "float32"}, {"name": "block4j_dwconv/depthwise_kernel", "shape": [3, 3, 960, 1], "dtype": "float32"}, {"name": "block4j_expand_bn/gamma", "shape": [960], "dtype": "float32"}, {"name": "block4j_expand_bn/beta", "shape": [960], "dtype": "float32"}, {"name": "block4j_expand_bn/moving_mean", "shape": [960], "dtype": "float32"}, {"name": "block4j_expand_bn/moving_variance", "shape": [960], "dtype": "float32"}, {"name": "block4j_expand_conv/kernel", "shape": [1, 1, 160, 960], "dtype": "float32"}, {"name": "block4j_project_bn/gamma", "shape": [160], "dtype": "float32"}, {"name": "block4j_project_bn/beta", "shape": [160], "dtype": "float32"}, {"name": "block4j_project_bn/moving_mean", "shape": [160], "dtype": "float32"}, {"name": "block4j_project_bn/moving_variance", "shape": [160], "dtype": "float32"}, {"name": "block4j_project_conv/kernel", "shape": [1, 1, 960, 160], "dtype": "float32"}, {"name": "block4j_se_expand/kernel", "shape": [1, 1, 40, 960], "dtype": "float32"}, {"name": "block4j_se_expand/bias", "shape": [960], "dtype": "float32"}, {"name": "block4j_se_reduce/kernel", "shape": [1, 1, 960, 40], "dtype": "float32"}, {"name": "block4j_se_reduce/bias", "shape": [40], "dtype": "float32"}, {"name": "block5a_bn/gamma", "shape": [960], "dtype": "float32"}, {"name": "block5a_bn/beta", "shape": [960], "dtype": "float32"}, {"name": "block5a_bn/moving_mean", "shape": [960], "dtype": "float32"}, {"name": "block5a_bn/moving_variance", "shape": [960], "dtype": "float32"}, {"name": "block5a_dwconv/depthwise_kernel", "shape": [5, 5, 960, 1], "dtype": "float32"}, {"name": "block5a_expand_bn/gamma", "shape": [960], "dtype": "float32"}, {"name": "block5a_expand_bn/beta", "shape": [960], "dtype": "float32"}, {"name": "block5a_expand_bn/moving_mean", "shape": [960], "dtype": "float32"}, {"name": "block5a_expand_bn/moving_variance", "shape": [960], "dtype": "float32"}, {"name": "block5a_expand_conv/kernel", "shape": [1, 1, 160, 960], "dtype": "float32"}, {"name": "block5a_project_bn/gamma", "shape": [224], "dtype": "float32"}, {"name": "block5a_project_bn/beta", "shape": [224], "dtype": "float32"}, {"name": "block5a_project_bn/moving_mean", "shape": [224], "dtype": "float32"}, {"name": "block5a_project_bn/moving_variance", "shape": [224], "dtype": "float32"}, {"name": "block5a_project_conv/kernel", "shape": [1, 1, 960, 224], "dtype": "float32"}, {"name": "block5a_se_expand/kernel", "shape": [1, 1, 40, 960], "dtype": "float32"}, {"name": "block5a_se_expand/bias", "shape": [960], "dtype": "float32"}, {"name": "block5a_se_reduce/kernel", "shape": [1, 1, 960, 40], "dtype": "float32"}, {"name": "block5a_se_reduce/bias", "shape": [40], "dtype": "float32"}, {"name": "block5b_bn/gamma", "shape": [1344], "dtype": "float32"}, {"name": "block5b_bn/beta", "shape": [1344], "dtype": "float32"}, {"name": "block5b_bn/moving_mean", "shape": [1344], "dtype": "float32"}, {"name": "block5b_bn/moving_variance", "shape": [1344], "dtype": "float32"}, {"name": "block5b_dwconv/depthwise_kernel", "shape": [5, 5, 1344, 1], "dtype": "float32"}, {"name": "block5b_expand_bn/gamma", "shape": [1344], "dtype": "float32"}, {"name": "block5b_expand_bn/beta", "shape": [1344], "dtype": "float32"}, {"name": "block5b_expand_bn/moving_mean", "shape": [1344], "dtype": "float32"}, {"name": "block5b_expand_bn/moving_variance", "shape": [1344], "dtype": "float32"}, {"name": "block5b_expand_conv/kernel", "shape": [1, 1, 224, 1344], "dtype": "float32"}, {"name": "block5b_project_bn/gamma", "shape": [224], "dtype": "float32"}, {"name": "block5b_project_bn/beta", "shape": [224], "dtype": "float32"}, {"name": "block5b_project_bn/moving_mean", "shape": [224], "dtype": "float32"}, {"name": "block5b_project_bn/moving_variance", "shape": [224], "dtype": "float32"}, {"name": "block5b_project_conv/kernel", "shape": [1, 1, 1344, 224], "dtype": "float32"}, {"name": "block5b_se_expand/kernel", "shape": [1, 1, 56, 1344], "dtype": "float32"}, {"name": "block5b_se_expand/bias", "shape": [1344], "dtype": "float32"}, {"name": "block5b_se_reduce/kernel", "shape": [1, 1, 1344, 56], "dtype": "float32"}, {"name": "block5b_se_reduce/bias", "shape": [56], "dtype": "float32"}, {"name": "block5c_bn/gamma", "shape": [1344], "dtype": "float32"}, {"name": "block5c_bn/beta", "shape": [1344], "dtype": "float32"}, {"name": "block5c_bn/moving_mean", "shape": [1344], "dtype": "float32"}, {"name": "block5c_bn/moving_variance", "shape": [1344], "dtype": "float32"}, {"name": "block5c_dwconv/depthwise_kernel", "shape": [5, 5, 1344, 1], "dtype": "float32"}, {"name": "block5c_expand_bn/gamma", "shape": [1344], "dtype": "float32"}, {"name": "block5c_expand_bn/beta", "shape": [1344], "dtype": "float32"}, {"name": "block5c_expand_bn/moving_mean", "shape": [1344], "dtype": "float32"}, {"name": "block5c_expand_bn/moving_variance", "shape": [1344], "dtype": "float32"}, {"name": "block5c_expand_conv/kernel", "shape": [1, 1, 224, 1344], "dtype": "float32"}, {"name": "block5c_project_bn/gamma", "shape": [224], "dtype": "float32"}, {"name": "block5c_project_bn/beta", "shape": [224], "dtype": "float32"}, {"name": "block5c_project_bn/moving_mean", "shape": [224], "dtype": "float32"}, {"name": "block5c_project_bn/moving_variance", "shape": [224], "dtype": "float32"}, {"name": "block5c_project_conv/kernel", "shape": [1, 1, 1344, 224], "dtype": "float32"}, {"name": "block5c_se_expand/kernel", "shape": [1, 1, 56, 1344], "dtype": "float32"}, {"name": "block5c_se_expand/bias", "shape": [1344], "dtype": "float32"}, {"name": "block5c_se_reduce/kernel", "shape": [1, 1, 1344, 56], "dtype": "float32"}, {"name": "block5c_se_reduce/bias", "shape": [56], "dtype": "float32"}, {"name": "block5d_bn/gamma", "shape": [1344], "dtype": "float32"}, {"name": "block5d_bn/beta", "shape": [1344], "dtype": "float32"}, {"name": "block5d_bn/moving_mean", "shape": [1344], "dtype": "float32"}, {"name": "block5d_bn/moving_variance", "shape": [1344], "dtype": "float32"}, {"name": "block5d_dwconv/depthwise_kernel", "shape": [5, 5, 1344, 1], "dtype": "float32"}, {"name": "block5d_expand_bn/gamma", "shape": [1344], "dtype": "float32"}, {"name": "block5d_expand_bn/beta", "shape": [1344], "dtype": "float32"}, {"name": "block5d_expand_bn/moving_mean", "shape": [1344], "dtype": "float32"}, {"name": "block5d_expand_bn/moving_variance", "shape": [1344], "dtype": "float32"}, {"name": "block5d_expand_conv/kernel", "shape": [1, 1, 224, 1344], "dtype": "float32"}, {"name": "block5d_project_bn/gamma", "shape": [224], "dtype": "float32"}, {"name": "block5d_project_bn/beta", "shape": [224], "dtype": "float32"}, {"name": "block5d_project_bn/moving_mean", "shape": [224], "dtype": "float32"}, {"name": "block5d_project_bn/moving_variance", "shape": [224], "dtype": "float32"}, {"name": "block5d_project_conv/kernel", "shape": [1, 1, 1344, 224], "dtype": "float32"}, {"name": "block5d_se_expand/kernel", "shape": [1, 1, 56, 1344], "dtype": "float32"}, {"name": "block5d_se_expand/bias", "shape": [1344], "dtype": "float32"}, {"name": "block5d_se_reduce/kernel", "shape": [1, 1, 1344, 56], "dtype": "float32"}, {"name": "block5d_se_reduce/bias", "shape": [56], "dtype": "float32"}, {"name": "block5e_bn/gamma", "shape": [1344], "dtype": "float32"}, {"name": "block5e_bn/beta", "shape": [1344], "dtype": "float32"}, {"name": "block5e_bn/moving_mean", "shape": [1344], "dtype": "float32"}, {"name": "block5e_bn/moving_variance", "shape": [1344], "dtype": "float32"}, {"name": "block5e_dwconv/depthwise_kernel", "shape": [5, 5, 1344, 1], "dtype": "float32"}, {"name": "block5e_expand_bn/gamma", "shape": [1344], "dtype": "float32"}, {"name": "block5e_expand_bn/beta", "shape": [1344], "dtype": "float32"}, {"name": "block5e_expand_bn/moving_mean", "shape": [1344], "dtype": "float32"}, {"name": "block5e_expand_bn/moving_variance", "shape": [1344], "dtype": "float32"}, {"name": "block5e_expand_conv/kernel", "shape": [1, 1, 224, 1344], "dtype": "float32"}, {"name": "block5e_project_bn/gamma", "shape": [224], "dtype": "float32"}, {"name": "block5e_project_bn/beta", "shape": [224], "dtype": "float32"}, {"name": "block5e_project_bn/moving_mean", "shape": [224], "dtype": "float32"}, {"name": "block5e_project_bn/moving_variance", "shape": [224], "dtype": "float32"}, {"name": "block5e_project_conv/kernel", "shape": [1, 1, 1344, 224], "dtype": "float32"}, {"name": "block5e_se_expand/kernel", "shape": [1, 1, 56, 1344], "dtype": "float32"}, {"name": "block5e_se_expand/bias", "shape": [1344], "dtype": "float32"}, {"name": "block5e_se_reduce/kernel", "shape": [1, 1, 1344, 56], "dtype": "float32"}, {"name": "block5e_se_reduce/bias", "shape": [56], "dtype": "float32"}, {"name": "block5f_bn/gamma", "shape": [1344], "dtype": "float32"}, {"name": "block5f_bn/beta", "shape": [1344], "dtype": "float32"}, {"name": "block5f_bn/moving_mean", "shape": [1344], "dtype": "float32"}, {"name": "block5f_bn/moving_variance", "shape": [1344], "dtype": "float32"}, {"name": "block5f_dwconv/depthwise_kernel", "shape": [5, 5, 1344, 1], "dtype": "float32"}, {"name": "block5f_expand_bn/gamma", "shape": [1344], "dtype": "float32"}, {"name": "block5f_expand_bn/beta", "shape": [1344], "dtype": "float32"}, {"name": "block5f_expand_bn/moving_mean", "shape": [1344], "dtype": "float32"}, {"name": "block5f_expand_bn/moving_variance", "shape": [1344], "dtype": "float32"}, {"name": "block5f_expand_conv/kernel", "shape": [1, 1, 224, 1344], "dtype": "float32"}, {"name": "block5f_project_bn/gamma", "shape": [224], "dtype": "float32"}, {"name": "block5f_project_bn/beta", "shape": [224], "dtype": "float32"}, {"name": "block5f_project_bn/moving_mean", "shape": [224], "dtype": "float32"}, {"name": "block5f_project_bn/moving_variance", "shape": [224], "dtype": "float32"}, {"name": "block5f_project_conv/kernel", "shape": [1, 1, 1344, 224], "dtype": "float32"}, {"name": "block5f_se_expand/kernel", "shape": [1, 1, 56, 1344], "dtype": "float32"}, {"name": "block5f_se_expand/bias", "shape": [1344], "dtype": "float32"}, {"name": "block5f_se_reduce/kernel", "shape": [1, 1, 1344, 56], "dtype": "float32"}, {"name": "block5f_se_reduce/bias", "shape": [56], "dtype": "float32"}, {"name": "block5g_bn/gamma", "shape": [1344], "dtype": "float32"}, {"name": "block5g_bn/beta", "shape": [1344], "dtype": "float32"}, {"name": "block5g_bn/moving_mean", "shape": [1344], "dtype": "float32"}, {"name": "block5g_bn/moving_variance", "shape": [1344], "dtype": "float32"}, {"name": "block5g_dwconv/depthwise_kernel", "shape": [5, 5, 1344, 1], "dtype": "float32"}, {"name": "block5g_expand_bn/gamma", "shape": [1344], "dtype": "float32"}, {"name": "block5g_expand_bn/beta", "shape": [1344], "dtype": "float32"}, {"name": "block5g_expand_bn/moving_mean", "shape": [1344], "dtype": "float32"}, {"name": "block5g_expand_bn/moving_variance", "shape": [1344], "dtype": "float32"}, {"name": "block5g_expand_conv/kernel", "shape": [1, 1, 224, 1344], "dtype": "float32"}, {"name": "block5g_project_bn/gamma", "shape": [224], "dtype": "float32"}, {"name": "block5g_project_bn/beta", "shape": [224], "dtype": "float32"}, {"name": "block5g_project_bn/moving_mean", "shape": [224], "dtype": "float32"}, {"name": "block5g_project_bn/moving_variance", "shape": [224], "dtype": "float32"}, {"name": "block5g_project_conv/kernel", "shape": [1, 1, 1344, 224], "dtype": "float32"}, {"name": "block5g_se_expand/kernel", "shape": [1, 1, 56, 1344], "dtype": "float32"}, {"name": "block5g_se_expand/bias", "shape": [1344], "dtype": "float32"}, {"name": "block5g_se_reduce/kernel", "shape": [1, 1, 1344, 56], "dtype": "float32"}, {"name": "block5g_se_reduce/bias", "shape": [56], "dtype": "float32"}, {"name": "block5h_bn/gamma", "shape": [1344], "dtype": "float32"}, {"name": "block5h_bn/beta", "shape": [1344], "dtype": "float32"}, {"name": "block5h_bn/moving_mean", "shape": [1344], "dtype": "float32"}, {"name": "block5h_bn/moving_variance", "shape": [1344], "dtype": "float32"}, {"name": "block5h_dwconv/depthwise_kernel", "shape": [5, 5, 1344, 1], "dtype": "float32"}, {"name": "block5h_expand_bn/gamma", "shape": [1344], "dtype": "float32"}, {"name": "block5h_expand_bn/beta", "shape": [1344], "dtype": "float32"}, {"name": "block5h_expand_bn/moving_mean", "shape": [1344], "dtype": "float32"}, {"name": "block5h_expand_bn/moving_variance", "shape": [1344], "dtype": "float32"}, {"name": "block5h_expand_conv/kernel", "shape": [1, 1, 224, 1344], "dtype": "float32"}, {"name": "block5h_project_bn/gamma", "shape": [224], "dtype": "float32"}, {"name": "block5h_project_bn/beta", "shape": [224], "dtype": "float32"}, {"name": "block5h_project_bn/moving_mean", "shape": [224], "dtype": "float32"}, {"name": "block5h_project_bn/moving_variance", "shape": [224], "dtype": "float32"}, {"name": "block5h_project_conv/kernel", "shape": [1, 1, 1344, 224], "dtype": "float32"}, {"name": "block5h_se_expand/kernel", "shape": [1, 1, 56, 1344], "dtype": "float32"}, {"name": "block5h_se_expand/bias", "shape": [1344], "dtype": "float32"}, {"name": "block5h_se_reduce/kernel", "shape": [1, 1, 1344, 56], "dtype": "float32"}, {"name": "block5h_se_reduce/bias", "shape": [56], "dtype": "float32"}, {"name": "block5i_bn/gamma", "shape": [1344], "dtype": "float32"}, {"name": "block5i_bn/beta", "shape": [1344], "dtype": "float32"}, {"name": "block5i_bn/moving_mean", "shape": [1344], "dtype": "float32"}, {"name": "block5i_bn/moving_variance", "shape": [1344], "dtype": "float32"}, {"name": "block5i_dwconv/depthwise_kernel", "shape": [5, 5, 1344, 1], "dtype": "float32"}, {"name": "block5i_expand_bn/gamma", "shape": [1344], "dtype": "float32"}, {"name": "block5i_expand_bn/beta", "shape": [1344], "dtype": "float32"}, {"name": "block5i_expand_bn/moving_mean", "shape": [1344], "dtype": "float32"}, {"name": "block5i_expand_bn/moving_variance", "shape": [1344], "dtype": "float32"}, {"name": "block5i_expand_conv/kernel", "shape": [1, 1, 224, 1344], "dtype": "float32"}, {"name": "block5i_project_bn/gamma", "shape": [224], "dtype": "float32"}, {"name": "block5i_project_bn/beta", "shape": [224], "dtype": "float32"}, {"name": "block5i_project_bn/moving_mean", "shape": [224], "dtype": "float32"}, {"name": "block5i_project_bn/moving_variance", "shape": [224], "dtype": "float32"}, {"name": "block5i_project_conv/kernel", "shape": [1, 1, 1344, 224], "dtype": "float32"}, {"name": "block5i_se_expand/kernel", "shape": [1, 1, 56, 1344], "dtype": "float32"}, {"name": "block5i_se_expand/bias", "shape": [1344], "dtype": "float32"}, {"name": "block5i_se_reduce/kernel", "shape": [1, 1, 1344, 56], "dtype": "float32"}, {"name": "block5i_se_reduce/bias", "shape": [56], "dtype": "float32"}, {"name": "block5j_bn/gamma", "shape": [1344], "dtype": "float32"}, {"name": "block5j_bn/beta", "shape": [1344], "dtype": "float32"}, {"name": "block5j_bn/moving_mean", "shape": [1344], "dtype": "float32"}, {"name": "block5j_bn/moving_variance", "shape": [1344], "dtype": "float32"}, {"name": "block5j_dwconv/depthwise_kernel", "shape": [5, 5, 1344, 1], "dtype": "float32"}, {"name": "block5j_expand_bn/gamma", "shape": [1344], "dtype": "float32"}, {"name": "block5j_expand_bn/beta", "shape": [1344], "dtype": "float32"}, {"name": "block5j_expand_bn/moving_mean", "shape": [1344], "dtype": "float32"}, {"name": "block5j_expand_bn/moving_variance", "shape": [1344], "dtype": "float32"}, {"name": "block5j_expand_conv/kernel", "shape": [1, 1, 224, 1344], "dtype": "float32"}, {"name": "block5j_project_bn/gamma", "shape": [224], "dtype": "float32"}, {"name": "block5j_project_bn/beta", "shape": [224], "dtype": "float32"}, {"name": "block5j_project_bn/moving_mean", "shape": [224], "dtype": "float32"}, {"name": "block5j_project_bn/moving_variance", "shape": [224], "dtype": "float32"}, {"name": "block5j_project_conv/kernel", "shape": [1, 1, 1344, 224], "dtype": "float32"}, {"name": "block5j_se_expand/kernel", "shape": [1, 1, 56, 1344], "dtype": "float32"}, {"name": "block5j_se_expand/bias", "shape": [1344], "dtype": "float32"}, {"name": "block5j_se_reduce/kernel", "shape": [1, 1, 1344, 56], "dtype": "float32"}, {"name": "block5j_se_reduce/bias", "shape": [56], "dtype": "float32"}, {"name": "block6a_bn/gamma", "shape": [1344], "dtype": "float32"}, {"name": "block6a_bn/beta", "shape": [1344], "dtype": "float32"}, {"name": "block6a_bn/moving_mean", "shape": [1344], "dtype": "float32"}, {"name": "block6a_bn/moving_variance", "shape": [1344], "dtype": "float32"}, {"name": "block6a_dwconv/depthwise_kernel", "shape": [5, 5, 1344, 1], "dtype": "float32"}, {"name": "block6a_expand_bn/gamma", "shape": [1344], "dtype": "float32"}, {"name": "block6a_expand_bn/beta", "shape": [1344], "dtype": "float32"}, {"name": "block6a_expand_bn/moving_mean", "shape": [1344], "dtype": "float32"}, {"name": "block6a_expand_bn/moving_variance", "shape": [1344], "dtype": "float32"}, {"name": "block6a_expand_conv/kernel", "shape": [1, 1, 224, 1344], "dtype": "float32"}, {"name": "block6a_project_bn/gamma", "shape": [384], "dtype": "float32"}, {"name": "block6a_project_bn/beta", "shape": [384], "dtype": "float32"}, {"name": "block6a_project_bn/moving_mean", "shape": [384], "dtype": "float32"}, {"name": "block6a_project_bn/moving_variance", "shape": [384], "dtype": "float32"}, {"name": "block6a_project_conv/kernel", "shape": [1, 1, 1344, 384], "dtype": "float32"}, {"name": "block6a_se_expand/kernel", "shape": [1, 1, 56, 1344], "dtype": "float32"}, {"name": "block6a_se_expand/bias", "shape": [1344], "dtype": "float32"}, {"name": "block6a_se_reduce/kernel", "shape": [1, 1, 1344, 56], "dtype": "float32"}, {"name": "block6a_se_reduce/bias", "shape": [56], "dtype": "float32"}, {"name": "block6b_bn/gamma", "shape": [2304], "dtype": "float32"}, {"name": "block6b_bn/beta", "shape": [2304], "dtype": "float32"}, {"name": "block6b_bn/moving_mean", "shape": [2304], "dtype": "float32"}, {"name": "block6b_bn/moving_variance", "shape": [2304], "dtype": "float32"}, {"name": "block6b_dwconv/depthwise_kernel", "shape": [5, 5, 2304, 1], "dtype": "float32"}, {"name": "block6b_expand_bn/gamma", "shape": [2304], "dtype": "float32"}, {"name": "block6b_expand_bn/beta", "shape": [2304], "dtype": "float32"}, {"name": "block6b_expand_bn/moving_mean", "shape": [2304], "dtype": "float32"}, {"name": "block6b_expand_bn/moving_variance", "shape": [2304], "dtype": "float32"}, {"name": "block6b_expand_conv/kernel", "shape": [1, 1, 384, 2304], "dtype": "float32"}, {"name": "block6b_project_bn/gamma", "shape": [384], "dtype": "float32"}, {"name": "block6b_project_bn/beta", "shape": [384], "dtype": "float32"}, {"name": "block6b_project_bn/moving_mean", "shape": [384], "dtype": "float32"}, {"name": "block6b_project_bn/moving_variance", "shape": [384], "dtype": "float32"}, {"name": "block6b_project_conv/kernel", "shape": [1, 1, 2304, 384], "dtype": "float32"}, {"name": "block6b_se_expand/kernel", "shape": [1, 1, 96, 2304], "dtype": "float32"}, {"name": "block6b_se_expand/bias", "shape": [2304], "dtype": "float32"}, {"name": "block6b_se_reduce/kernel", "shape": [1, 1, 2304, 96], "dtype": "float32"}, {"name": "block6b_se_reduce/bias", "shape": [96], "dtype": "float32"}, {"name": "block6c_bn/gamma", "shape": [2304], "dtype": "float32"}, {"name": "block6c_bn/beta", "shape": [2304], "dtype": "float32"}, {"name": "block6c_bn/moving_mean", "shape": [2304], "dtype": "float32"}, {"name": "block6c_bn/moving_variance", "shape": [2304], "dtype": "float32"}, {"name": "block6c_dwconv/depthwise_kernel", "shape": [5, 5, 2304, 1], "dtype": "float32"}, {"name": "block6c_expand_bn/gamma", "shape": [2304], "dtype": "float32"}, {"name": "block6c_expand_bn/beta", "shape": [2304], "dtype": "float32"}, {"name": "block6c_expand_bn/moving_mean", "shape": [2304], "dtype": "float32"}, {"name": "block6c_expand_bn/moving_variance", "shape": [2304], "dtype": "float32"}, {"name": "block6c_expand_conv/kernel", "shape": [1, 1, 384, 2304], "dtype": "float32"}, {"name": "block6c_project_bn/gamma", "shape": [384], "dtype": "float32"}, {"name": "block6c_project_bn/beta", "shape": [384], "dtype": "float32"}, {"name": "block6c_project_bn/moving_mean", "shape": [384], "dtype": "float32"}, {"name": "block6c_project_bn/moving_variance", "shape": [384], "dtype": "float32"}, {"name": "block6c_project_conv/kernel", "shape": [1, 1, 2304, 384], "dtype": "float32"}, {"name": "block6c_se_expand/kernel", "shape": [1, 1, 96, 2304], "dtype": "float32"}, {"name": "block6c_se_expand/bias", "shape": [2304], "dtype": "float32"}, {"name": "block6c_se_reduce/kernel", "shape": [1, 1, 2304, 96], "dtype": "float32"}, {"name": "block6c_se_reduce/bias", "shape": [96], "dtype": "float32"}, {"name": "block6d_bn/gamma", "shape": [2304], "dtype": "float32"}, {"name": "block6d_bn/beta", "shape": [2304], "dtype": "float32"}, {"name": "block6d_bn/moving_mean", "shape": [2304], "dtype": "float32"}, {"name": "block6d_bn/moving_variance", "shape": [2304], "dtype": "float32"}, {"name": "block6d_dwconv/depthwise_kernel", "shape": [5, 5, 2304, 1], "dtype": "float32"}, {"name": "block6d_expand_bn/gamma", "shape": [2304], "dtype": "float32"}, {"name": "block6d_expand_bn/beta", "shape": [2304], "dtype": "float32"}, {"name": "block6d_expand_bn/moving_mean", "shape": [2304], "dtype": "float32"}, {"name": "block6d_expand_bn/moving_variance", "shape": [2304], "dtype": "float32"}, {"name": "block6d_expand_conv/kernel", "shape": [1, 1, 384, 2304], "dtype": "float32"}, {"name": "block6d_project_bn/gamma", "shape": [384], "dtype": "float32"}, {"name": "block6d_project_bn/beta", "shape": [384], "dtype": "float32"}, {"name": "block6d_project_bn/moving_mean", "shape": [384], "dtype": "float32"}, {"name": "block6d_project_bn/moving_variance", "shape": [384], "dtype": "float32"}, {"name": "block6d_project_conv/kernel", "shape": [1, 1, 2304, 384], "dtype": "float32"}, {"name": "block6d_se_expand/kernel", "shape": [1, 1, 96, 2304], "dtype": "float32"}, {"name": "block6d_se_expand/bias", "shape": [2304], "dtype": "float32"}, {"name": "block6d_se_reduce/kernel", "shape": [1, 1, 2304, 96], "dtype": "float32"}, {"name": "block6d_se_reduce/bias", "shape": [96], "dtype": "float32"}, {"name": "block6e_bn/gamma", "shape": [2304], "dtype": "float32"}, {"name": "block6e_bn/beta", "shape": [2304], "dtype": "float32"}, {"name": "block6e_bn/moving_mean", "shape": [2304], "dtype": "float32"}, {"name": "block6e_bn/moving_variance", "shape": [2304], "dtype": "float32"}, {"name": "block6e_dwconv/depthwise_kernel", "shape": [5, 5, 2304, 1], "dtype": "float32"}, {"name": "block6e_expand_bn/gamma", "shape": [2304], "dtype": "float32"}, {"name": "block6e_expand_bn/beta", "shape": [2304], "dtype": "float32"}, {"name": "block6e_expand_bn/moving_mean", "shape": [2304], "dtype": "float32"}, {"name": "block6e_expand_bn/moving_variance", "shape": [2304], "dtype": "float32"}, {"name": "block6e_expand_conv/kernel", "shape": [1, 1, 384, 2304], "dtype": "float32"}, {"name": "block6e_project_bn/gamma", "shape": [384], "dtype": "float32"}, {"name": "block6e_project_bn/beta", "shape": [384], "dtype": "float32"}, {"name": "block6e_project_bn/moving_mean", "shape": [384], "dtype": "float32"}, {"name": "block6e_project_bn/moving_variance", "shape": [384], "dtype": "float32"}, {"name": "block6e_project_conv/kernel", "shape": [1, 1, 2304, 384], "dtype": "float32"}, {"name": "block6e_se_expand/kernel", "shape": [1, 1, 96, 2304], "dtype": "float32"}, {"name": "block6e_se_expand/bias", "shape": [2304], "dtype": "float32"}, {"name": "block6e_se_reduce/kernel", "shape": [1, 1, 2304, 96], "dtype": "float32"}, {"name": "block6e_se_reduce/bias", "shape": [96], "dtype": "float32"}, {"name": "block6f_bn/gamma", "shape": [2304], "dtype": "float32"}, {"name": "block6f_bn/beta", "shape": [2304], "dtype": "float32"}, {"name": "block6f_bn/moving_mean", "shape": [2304], "dtype": "float32"}, {"name": "block6f_bn/moving_variance", "shape": [2304], "dtype": "float32"}, {"name": "block6f_dwconv/depthwise_kernel", "shape": [5, 5, 2304, 1], "dtype": "float32"}, {"name": "block6f_expand_bn/gamma", "shape": [2304], "dtype": "float32"}, {"name": "block6f_expand_bn/beta", "shape": [2304], "dtype": "float32"}, {"name": "block6f_expand_bn/moving_mean", "shape": [2304], "dtype": "float32"}, {"name": "block6f_expand_bn/moving_variance", "shape": [2304], "dtype": "float32"}, {"name": "block6f_expand_conv/kernel", "shape": [1, 1, 384, 2304], "dtype": "float32"}, {"name": "block6f_project_bn/gamma", "shape": [384], "dtype": "float32"}, {"name": "block6f_project_bn/beta", "shape": [384], "dtype": "float32"}, {"name": "block6f_project_bn/moving_mean", "shape": [384], "dtype": "float32"}, {"name": "block6f_project_bn/moving_variance", "shape": [384], "dtype": "float32"}, {"name": "block6f_project_conv/kernel", "shape": [1, 1, 2304, 384], "dtype": "float32"}, {"name": "block6f_se_expand/kernel", "shape": [1, 1, 96, 2304], "dtype": "float32"}, {"name": "block6f_se_expand/bias", "shape": [2304], "dtype": "float32"}, {"name": "block6f_se_reduce/kernel", "shape": [1, 1, 2304, 96], "dtype": "float32"}, {"name": "block6f_se_reduce/bias", "shape": [96], "dtype": "float32"}, {"name": "block6g_bn/gamma", "shape": [2304], "dtype": "float32"}, {"name": "block6g_bn/beta", "shape": [2304], "dtype": "float32"}, {"name": "block6g_bn/moving_mean", "shape": [2304], "dtype": "float32"}, {"name": "block6g_bn/moving_variance", "shape": [2304], "dtype": "float32"}, {"name": "block6g_dwconv/depthwise_kernel", "shape": [5, 5, 2304, 1], "dtype": "float32"}, {"name": "block6g_expand_bn/gamma", "shape": [2304], "dtype": "float32"}, {"name": "block6g_expand_bn/beta", "shape": [2304], "dtype": "float32"}, {"name": "block6g_expand_bn/moving_mean", "shape": [2304], "dtype": "float32"}, {"name": "block6g_expand_bn/moving_variance", "shape": [2304], "dtype": "float32"}, {"name": "block6g_expand_conv/kernel", "shape": [1, 1, 384, 2304], "dtype": "float32"}, {"name": "block6g_project_bn/gamma", "shape": [384], "dtype": "float32"}, {"name": "block6g_project_bn/beta", "shape": [384], "dtype": "float32"}, {"name": "block6g_project_bn/moving_mean", "shape": [384], "dtype": "float32"}, {"name": "block6g_project_bn/moving_variance", "shape": [384], "dtype": "float32"}, {"name": "block6g_project_conv/kernel", "shape": [1, 1, 2304, 384], "dtype": "float32"}, {"name": "block6g_se_expand/kernel", "shape": [1, 1, 96, 2304], "dtype": "float32"}, {"name": "block6g_se_expand/bias", "shape": [2304], "dtype": "float32"}, {"name": "block6g_se_reduce/kernel", "shape": [1, 1, 2304, 96], "dtype": "float32"}, {"name": "block6g_se_reduce/bias", "shape": [96], "dtype": "float32"}, {"name": "block6h_bn/gamma", "shape": [2304], "dtype": "float32"}, {"name": "block6h_bn/beta", "shape": [2304], "dtype": "float32"}, {"name": "block6h_bn/moving_mean", "shape": [2304], "dtype": "float32"}, {"name": "block6h_bn/moving_variance", "shape": [2304], "dtype": "float32"}, {"name": "block6h_dwconv/depthwise_kernel", "shape": [5, 5, 2304, 1], "dtype": "float32"}, {"name": "block6h_expand_bn/gamma", "shape": [2304], "dtype": "float32"}, {"name": "block6h_expand_bn/beta", "shape": [2304], "dtype": "float32"}, {"name": "block6h_expand_bn/moving_mean", "shape": [2304], "dtype": "float32"}, {"name": "block6h_expand_bn/moving_variance", "shape": [2304], "dtype": "float32"}, {"name": "block6h_expand_conv/kernel", "shape": [1, 1, 384, 2304], "dtype": "float32"}, {"name": "block6h_project_bn/gamma", "shape": [384], "dtype": "float32"}, {"name": "block6h_project_bn/beta", "shape": [384], "dtype": "float32"}, {"name": "block6h_project_bn/moving_mean", "shape": [384], "dtype": "float32"}, {"name": "block6h_project_bn/moving_variance", "shape": [384], "dtype": "float32"}, {"name": "block6h_project_conv/kernel", "shape": [1, 1, 2304, 384], "dtype": "float32"}, {"name": "block6h_se_expand/kernel", "shape": [1, 1, 96, 2304], "dtype": "float32"}, {"name": "block6h_se_expand/bias", "shape": [2304], "dtype": "float32"}, {"name": "block6h_se_reduce/kernel", "shape": [1, 1, 2304, 96], "dtype": "float32"}, {"name": "block6h_se_reduce/bias", "shape": [96], "dtype": "float32"}, {"name": "block6i_bn/gamma", "shape": [2304], "dtype": "float32"}, {"name": "block6i_bn/beta", "shape": [2304], "dtype": "float32"}, {"name": "block6i_bn/moving_mean", "shape": [2304], "dtype": "float32"}, {"name": "block6i_bn/moving_variance", "shape": [2304], "dtype": "float32"}, {"name": "block6i_dwconv/depthwise_kernel", "shape": [5, 5, 2304, 1], "dtype": "float32"}, {"name": "block6i_expand_bn/gamma", "shape": [2304], "dtype": "float32"}, {"name": "block6i_expand_bn/beta", "shape": [2304], "dtype": "float32"}, {"name": "block6i_expand_bn/moving_mean", "shape": [2304], "dtype": "float32"}, {"name": "block6i_expand_bn/moving_variance", "shape": [2304], "dtype": "float32"}, {"name": "block6i_expand_conv/kernel", "shape": [1, 1, 384, 2304], "dtype": "float32"}, {"name": "block6i_project_bn/gamma", "shape": [384], "dtype": "float32"}, {"name": "block6i_project_bn/beta", "shape": [384], "dtype": "float32"}, {"name": "block6i_project_bn/moving_mean", "shape": [384], "dtype": "float32"}, {"name": "block6i_project_bn/moving_variance", "shape": [384], "dtype": "float32"}, {"name": "block6i_project_conv/kernel", "shape": [1, 1, 2304, 384], "dtype": "float32"}, {"name": "block6i_se_expand/kernel", "shape": [1, 1, 96, 2304], "dtype": "float32"}, {"name": "block6i_se_expand/bias", "shape": [2304], "dtype": "float32"}, {"name": "block6i_se_reduce/kernel", "shape": [1, 1, 2304, 96], "dtype": "float32"}, {"name": "block6i_se_reduce/bias", "shape": [96], "dtype": "float32"}, {"name": "block6j_bn/gamma", "shape": [2304], "dtype": "float32"}, {"name": "block6j_bn/beta", "shape": [2304], "dtype": "float32"}, {"name": "block6j_bn/moving_mean", "shape": [2304], "dtype": "float32"}, {"name": "block6j_bn/moving_variance", "shape": [2304], "dtype": "float32"}, {"name": "block6j_dwconv/depthwise_kernel", "shape": [5, 5, 2304, 1], "dtype": "float32"}, {"name": "block6j_expand_bn/gamma", "shape": [2304], "dtype": "float32"}, {"name": "block6j_expand_bn/beta", "shape": [2304], "dtype": "float32"}, {"name": "block6j_expand_bn/moving_mean", "shape": [2304], "dtype": "float32"}, {"name": "block6j_expand_bn/moving_variance", "shape": [2304], "dtype": "float32"}, {"name": "block6j_expand_conv/kernel", "shape": [1, 1, 384, 2304], "dtype": "float32"}, {"name": "block6j_project_bn/gamma", "shape": [384], "dtype": "float32"}, {"name": "block6j_project_bn/beta", "shape": [384], "dtype": "float32"}, {"name": "block6j_project_bn/moving_mean", "shape": [384], "dtype": "float32"}, {"name": "block6j_project_bn/moving_variance", "shape": [384], "dtype": "float32"}, {"name": "block6j_project_conv/kernel", "shape": [1, 1, 2304, 384], "dtype": "float32"}, {"name": "block6j_se_expand/kernel", "shape": [1, 1, 96, 2304], "dtype": "float32"}, {"name": "block6j_se_expand/bias", "shape": [2304], "dtype": "float32"}, {"name": "block6j_se_reduce/kernel", "shape": [1, 1, 2304, 96], "dtype": "float32"}, {"name": "block6j_se_reduce/bias", "shape": [96], "dtype": "float32"}, {"name": "block6k_bn/gamma", "shape": [2304], "dtype": "float32"}, {"name": "block6k_bn/beta", "shape": [2304], "dtype": "float32"}, {"name": "block6k_bn/moving_mean", "shape": [2304], "dtype": "float32"}, {"name": "block6k_bn/moving_variance", "shape": [2304], "dtype": "float32"}, {"name": "block6k_dwconv/depthwise_kernel", "shape": [5, 5, 2304, 1], "dtype": "float32"}, {"name": "block6k_expand_bn/gamma", "shape": [2304], "dtype": "float32"}, {"name": "block6k_expand_bn/beta", "shape": [2304], "dtype": "float32"}, {"name": "block6k_expand_bn/moving_mean", "shape": [2304], "dtype": "float32"}, {"name": "block6k_expand_bn/moving_variance", "shape": [2304], "dtype": "float32"}, {"name": "block6k_expand_conv/kernel", "shape": [1, 1, 384, 2304], "dtype": "float32"}, {"name": "block6k_project_bn/gamma", "shape": [384], "dtype": "float32"}, {"name": "block6k_project_bn/beta", "shape": [384], "dtype": "float32"}, {"name": "block6k_project_bn/moving_mean", "shape": [384], "dtype": "float32"}, {"name": "block6k_project_bn/moving_variance", "shape": [384], "dtype": "float32"}, {"name": "block6k_project_conv/kernel", "shape": [1, 1, 2304, 384], "dtype": "float32"}, {"name": "block6k_se_expand/kernel", "shape": [1, 1, 96, 2304], "dtype": "float32"}, {"name": "block6k_se_expand/bias", "shape": [2304], "dtype": "float32"}, {"name": "block6k_se_reduce/kernel", "shape": [1, 1, 2304, 96], "dtype": "float32"}, {"name": "block6k_se_reduce/bias", "shape": [96], "dtype": "float32"}, {"name": "block6l_bn/gamma", "shape": [2304], "dtype": "float32"}, {"name": "block6l_bn/beta", "shape": [2304], "dtype": "float32"}, {"name": "block6l_bn/moving_mean", "shape": [2304], "dtype": "float32"}, {"name": "block6l_bn/moving_variance", "shape": [2304], "dtype": "float32"}, {"name": "block6l_dwconv/depthwise_kernel", "shape": [5, 5, 2304, 1], "dtype": "float32"}, {"name": "block6l_expand_bn/gamma", "shape": [2304], "dtype": "float32"}, {"name": "block6l_expand_bn/beta", "shape": [2304], "dtype": "float32"}, {"name": "block6l_expand_bn/moving_mean", "shape": [2304], "dtype": "float32"}, {"name": "block6l_expand_bn/moving_variance", "shape": [2304], "dtype": "float32"}, {"name": "block6l_expand_conv/kernel", "shape": [1, 1, 384, 2304], "dtype": "float32"}, {"name": "block6l_project_bn/gamma", "shape": [384], "dtype": "float32"}, {"name": "block6l_project_bn/beta", "shape": [384], "dtype": "float32"}, {"name": "block6l_project_bn/moving_mean", "shape": [384], "dtype": "float32"}, {"name": "block6l_project_bn/moving_variance", "shape": [384], "dtype": "float32"}, {"name": "block6l_project_conv/kernel", "shape": [1, 1, 2304, 384], "dtype": "float32"}, {"name": "block6l_se_expand/kernel", "shape": [1, 1, 96, 2304], "dtype": "float32"}, {"name": "block6l_se_expand/bias", "shape": [2304], "dtype": "float32"}, {"name": "block6l_se_reduce/kernel", "shape": [1, 1, 2304, 96], "dtype": "float32"}, {"name": "block6l_se_reduce/bias", "shape": [96], "dtype": "float32"}, {"name": "block6m_bn/gamma", "shape": [2304], "dtype": "float32"}, {"name": "block6m_bn/beta", "shape": [2304], "dtype": "float32"}, {"name": "block6m_bn/moving_mean", "shape": [2304], "dtype": "float32"}, {"name": "block6m_bn/moving_variance", "shape": [2304], "dtype": "float32"}, {"name": "block6m_dwconv/depthwise_kernel", "shape": [5, 5, 2304, 1], "dtype": "float32"}, {"name": "block6m_expand_bn/gamma", "shape": [2304], "dtype": "float32"}, {"name": "block6m_expand_bn/beta", "shape": [2304], "dtype": "float32"}, {"name": "block6m_expand_bn/moving_mean", "shape": [2304], "dtype": "float32"}, {"name": "block6m_expand_bn/moving_variance", "shape": [2304], "dtype": "float32"}, {"name": "block6m_expand_conv/kernel", "shape": [1, 1, 384, 2304], "dtype": "float32"}, {"name": "block6m_project_bn/gamma", "shape": [384], "dtype": "float32"}, {"name": "block6m_project_bn/beta", "shape": [384], "dtype": "float32"}, {"name": "block6m_project_bn/moving_mean", "shape": [384], "dtype": "float32"}, {"name": "block6m_project_bn/moving_variance", "shape": [384], "dtype": "float32"}, {"name": "block6m_project_conv/kernel", "shape": [1, 1, 2304, 384], "dtype": "float32"}, {"name": "block6m_se_expand/kernel", "shape": [1, 1, 96, 2304], "dtype": "float32"}, {"name": "block6m_se_expand/bias", "shape": [2304], "dtype": "float32"}, {"name": "block6m_se_reduce/kernel", "shape": [1, 1, 2304, 96], "dtype": "float32"}, {"name": "block6m_se_reduce/bias", "shape": [96], "dtype": "float32"}, {"name": "block7a_bn/gamma", "shape": [2304], "dtype": "float32"}, {"name": "block7a_bn/beta", "shape": [2304], "dtype": "float32"}, {"name": "block7a_bn/moving_mean", "shape": [2304], "dtype": "float32"}, {"name": "block7a_bn/moving_variance", "shape": [2304], "dtype": "float32"}, {"name": "block7a_dwconv/depthwise_kernel", "shape": [3, 3, 2304, 1], "dtype": "float32"}, {"name": "block7a_expand_bn/gamma", "shape": [2304], "dtype": "float32"}, {"name": "block7a_expand_bn/beta", "shape": [2304], "dtype": "float32"}, {"name": "block7a_expand_bn/moving_mean", "shape": [2304], "dtype": "float32"}, {"name": "block7a_expand_bn/moving_variance", "shape": [2304], "dtype": "float32"}, {"name": "block7a_expand_conv/kernel", "shape": [1, 1, 384, 2304], "dtype": "float32"}, {"name": "block7a_project_bn/gamma", "shape": [640], "dtype": "float32"}, {"name": "block7a_project_bn/beta", "shape": [640], "dtype": "float32"}, {"name": "block7a_project_bn/moving_mean", "shape": [640], "dtype": "float32"}, {"name": "block7a_project_bn/moving_variance", "shape": [640], "dtype": "float32"}, {"name": "block7a_project_conv/kernel", "shape": [1, 1, 2304, 640], "dtype": "float32"}, {"name": "block7a_se_expand/kernel", "shape": [1, 1, 96, 2304], "dtype": "float32"}, {"name": "block7a_se_expand/bias", "shape": [2304], "dtype": "float32"}, {"name": "block7a_se_reduce/kernel", "shape": [1, 1, 2304, 96], "dtype": "float32"}, {"name": "block7a_se_reduce/bias", "shape": [96], "dtype": "float32"}, {"name": "block7b_bn/gamma", "shape": [3840], "dtype": "float32"}, {"name": "block7b_bn/beta", "shape": [3840], "dtype": "float32"}, {"name": "block7b_bn/moving_mean", "shape": [3840], "dtype": "float32"}, {"name": "block7b_bn/moving_variance", "shape": [3840], "dtype": "float32"}, {"name": "block7b_dwconv/depthwise_kernel", "shape": [3, 3, 3840, 1], "dtype": "float32"}, {"name": "block7b_expand_bn/gamma", "shape": [3840], "dtype": "float32"}, {"name": "block7b_expand_bn/beta", "shape": [3840], "dtype": "float32"}, {"name": "block7b_expand_bn/moving_mean", "shape": [3840], "dtype": "float32"}, {"name": "block7b_expand_bn/moving_variance", "shape": [3840], "dtype": "float32"}, {"name": "block7b_expand_conv/kernel", "shape": [1, 1, 640, 3840], "dtype": "float32"}, {"name": "block7b_project_bn/gamma", "shape": [640], "dtype": "float32"}, {"name": "block7b_project_bn/beta", "shape": [640], "dtype": "float32"}, {"name": "block7b_project_bn/moving_mean", "shape": [640], "dtype": "float32"}, {"name": "block7b_project_bn/moving_variance", "shape": [640], "dtype": "float32"}, {"name": "block7b_project_conv/kernel", "shape": [1, 1, 3840, 640], "dtype": "float32"}, {"name": "block7b_se_expand/kernel", "shape": [1, 1, 160, 3840], "dtype": "float32"}, {"name": "block7b_se_expand/bias", "shape": [3840], "dtype": "float32"}, {"name": "block7b_se_reduce/kernel", "shape": [1, 1, 3840, 160], "dtype": "float32"}, {"name": "block7b_se_reduce/bias", "shape": [160], "dtype": "float32"}, {"name": "block7c_bn/gamma", "shape": [3840], "dtype": "float32"}, {"name": "block7c_bn/beta", "shape": [3840], "dtype": "float32"}, {"name": "block7c_bn/moving_mean", "shape": [3840], "dtype": "float32"}, {"name": "block7c_bn/moving_variance", "shape": [3840], "dtype": "float32"}, {"name": "block7c_dwconv/depthwise_kernel", "shape": [3, 3, 3840, 1], "dtype": "float32"}, {"name": "block7c_expand_bn/gamma", "shape": [3840], "dtype": "float32"}, {"name": "block7c_expand_bn/beta", "shape": [3840], "dtype": "float32"}, {"name": "block7c_expand_bn/moving_mean", "shape": [3840], "dtype": "float32"}, {"name": "block7c_expand_bn/moving_variance", "shape": [3840], "dtype": "float32"}, {"name": "block7c_expand_conv/kernel", "shape": [1, 1, 640, 3840], "dtype": "float32"}, {"name": "block7c_project_bn/gamma", "shape": [640], "dtype": "float32"}, {"name": "block7c_project_bn/beta", "shape": [640], "dtype": "float32"}, {"name": "block7c_project_bn/moving_mean", "shape": [640], "dtype": "float32"}, {"name": "block7c_project_bn/moving_variance", "shape": [640], "dtype": "float32"}, {"name": "block7c_project_conv/kernel", "shape": [1, 1, 3840, 640], "dtype": "float32"}, {"name": "block7c_se_expand/kernel", "shape": [1, 1, 160, 3840], "dtype": "float32"}, {"name": "block7c_se_expand/bias", "shape": [3840], "dtype": "float32"}, {"name": "block7c_se_reduce/kernel", "shape": [1, 1, 3840, 160], "dtype": "float32"}, {"name": "block7c_se_reduce/bias", "shape": [160], "dtype": "float32"}, {"name": "block7d_bn/gamma", "shape": [3840], "dtype": "float32"}, {"name": "block7d_bn/beta", "shape": [3840], "dtype": "float32"}, {"name": "block7d_bn/moving_mean", "shape": [3840], "dtype": "float32"}, {"name": "block7d_bn/moving_variance", "shape": [3840], "dtype": "float32"}, {"name": "block7d_dwconv/depthwise_kernel", "shape": [3, 3, 3840, 1], "dtype": "float32"}, {"name": "block7d_expand_bn/gamma", "shape": [3840], "dtype": "float32"}, {"name": "block7d_expand_bn/beta", "shape": [3840], "dtype": "float32"}, {"name": "block7d_expand_bn/moving_mean", "shape": [3840], "dtype": "float32"}, {"name": "block7d_expand_bn/moving_variance", "shape": [3840], "dtype": "float32"}, {"name": "block7d_expand_conv/kernel", "shape": [1, 1, 640, 3840], "dtype": "float32"}, {"name": "block7d_project_bn/gamma", "shape": [640], "dtype": "float32"}, {"name": "block7d_project_bn/beta", "shape": [640], "dtype": "float32"}, {"name": "block7d_project_bn/moving_mean", "shape": [640], "dtype": "float32"}, {"name": "block7d_project_bn/moving_variance", "shape": [640], "dtype": "float32"}, {"name": "block7d_project_conv/kernel", "shape": [1, 1, 3840, 640], "dtype": "float32"}, {"name": "block7d_se_expand/kernel", "shape": [1, 1, 160, 3840], "dtype": "float32"}, {"name": "block7d_se_expand/bias", "shape": [3840], "dtype": "float32"}, {"name": "block7d_se_reduce/kernel", "shape": [1, 1, 3840, 160], "dtype": "float32"}, {"name": "block7d_se_reduce/bias", "shape": [160], "dtype": "float32"}, {"name": "dense/kernel", "shape": [40960, 128], "dtype": "float32"}, {"name": "dense/bias", "shape": [128], "dtype": "float32"}, {"name": "dense_1/kernel", "shape": [128, 9], "dtype": "float32"}, {"name": "dense_1/bias", "shape": [9], "dtype": "float32"}, {"name": "normalization/mean", "shape": [3], "dtype": "float32"}, {"name": "normalization/variance", "shape": [3], "dtype": "float32"}, {"name": "normalization/count", "shape": [], "dtype": "int32"}, {"name": "stem_bn/gamma", "shape": [64], "dtype": "float32"}, {"name": "stem_bn/beta", "shape": [64], "dtype": "float32"}, {"name": "stem_bn/moving_mean", "shape": [64], "dtype": "float32"}, {"name": "stem_bn/moving_variance", "shape": [64], "dtype": "float32"}, {"name": "stem_conv/kernel", "shape": [3, 3, 3, 64], "dtype": "float32"}, {"name": "top_bn/gamma", "shape": [2560], "dtype": "float32"}, {"name": "top_bn/beta", "shape": [2560], "dtype": "float32"}, {"name": "top_bn/moving_mean", "shape": [2560], "dtype": "float32"}, {"name": "top_bn/moving_variance", "shape": [2560], "dtype": "float32"}, {"name": "top_conv/kernel", "shape": [1, 1, 640, 2560], "dtype": "float32"}]}]}